openwakeup/ok_chatbot.tflite (tflite, 206748 bytes, 9 tensors)

Const_1 f4 [32]
00000000: af1c 37bc 9d6d b33a e48a 54bb a2eb 8aba
00000010: a448 013c 4022 513c 92f6 e4bc 15a7 813c
00000020: 38f1 b3bb d3a1 c03c 1e67 033b 0e33 8b3a
00000030: 983f 78bb 986b d2bc c065 ac3c f447 5ebc
00000040: 6c5e c7bc 3ef9 a9bc 9ea2 04bc 8ae5 1abc
00000050: 0aeb a93c f231 423a c56d c23b 9ae4 0f3c
00000060: 379c 233c a44f feba 723c 86bc cce0 45bb
00000070: 0538 a63c bb55 f13c 6d66 89bb 7073 e4bb
-0.011176272 0.0013689284 -0.0032431418 -0.0010598789 0.007890854 0.0127645135 -0.027949605 0.015826741
-0.005491402 0.023514664 0.0020050476 0.0010620074 -0.0037879702 -0.02568607 0.021044612 -0.01356696
-0.024337016 -0.02074873 -0.008095412 -0.00945414 0.020741958 0.0007407955 0.0059334957 0.00878253
0.009985975 -0.0019402397 -0.016386244 -0.0030193804 0.020290384 0.029459825 -0.0041931183 -0.006971769

Const_2 f4 [32]
00000000: 2458 7d3f b891 803f 3487 7c3f 0ef0 783f
00000010: 9354 7e3f 9a77 7f3f 8d3e 873f c815 813f
00000020: a37e 843f 004c 7c3f 7b35 793f 9b87 843f
00000030: ace8 823f d622 7d3f a53f 833f 4a0e 793f
00000040: 480c 7d3f a63a 7c3f 6566 813f 5d55 873f
00000050: 08f7 7d3f 314a 803f f6f2 7e3f 0a62 7c3f
00000060: 042e 7e3f b51b 833f 03c3 823f 5294 7f3f
00000070: fd10 7e3f a040 833f e4a6 7e3f 4ca5 7f3f
0.98962617 1.004447 0.98643804 0.97241294 0.993478 0.9979187 1.0565964 1.0084772
1.0351146 0.98553467 0.9734723 1.0353884 1.0227256 0.9888128 1.0253798 0.9728743
0.98846865 0.9852699 1.0109373 1.0572926 0.99205065 1.0022641 0.9958948 0.98587096
0.99288964 1.024283 1.0215763 0.99835694 0.9924467 1.0254097 0.99473405 0.998616

Const_3 f4 [32]
00000000: 1b73 1a3d 20c3 d23b 06e4 a93c 8e97 93bc
00000010: 7551 6a3c 94f6 e43a a54d cf3b 634a 2e3c
00000020: 975c 603b dc70 66bc f6fa 863c 4f35 9a3c
00000030: 9322 4c3c 0e1b 05bc e479 d13c 56a2 763c
00000040: 0dcb c8bb 17d8 4abc d8cf bb3b 7d92 b33c
00000050: bd13 2ebb 647d 8d3c 693d 96bc d58d 0c3c
00000060: 2e53 93bc bb8d d13b 823d 813c 56ad 2dbc
00000070: 5a56 c33b 44bd 0e3c 11ad 46bc 11ef 1b3a
0.03770743 0.006431952 0.020738613 -0.018016603 0.014301647 0.0017468506 0.0063263946 0.010637852
0.0034234875 -0.014064994 0.01647709 0.018824248 0.012459415 -0.008124126 0.025570817 0.015053352
-0.006127721 -0.012380621 0.005731564 0.021920437 -0.0026562058 0.017271705 -0.01833983 0.008578737
-0.017984 0.0063950694 0.0157764 -0.010600409 0.0059612216 0.008712117 -0.012126223 0.00059484044

Const_5 f4 [32]
00000000: 4f38 92bd f87d 0ebc c781 0abe 26c5 3f3e
00000010: 74ee 163e 4471 05be c66f 2abd 6cfa 0dbe
00000020: 7d4b ab3d ba68 e83d fd74 e5bd 74f7 4cbc
00000030: 27ef edbd 2f2a de3d 35fc 0cbe faa6 cf3d
00000040: e00a dfbd d0bd d7bd 267b 2fbe 9024 31be
00000050: 4dc8 0fbd f491 273e 9a58 0d3d 0722 2fbd
00000060: 1c65 25be 96f4 c03d cad4 043d eeea ebbd
00000070: ac44 85bd fa6f ccbd 5895 25be a330 a63d
-0.07139646 -0.0086970255 -0.13526069 0.1872755 0.147394 -0.13031489 -0.0416105 -0.1386506
0.083640076 0.113481 -0.11203954 -0.012510169 -0.1161788 0.1084789 -0.13768084 0.1013927
-0.10890746 -0.10534251 -0.17136821 -0.17299104 -0.03510313 0.1636427 0.034508325 -0.04275706
-0.16151851 0.09421651 0.032429494 -0.11519419 -0.06507239 -0.09982295 -0.16170251 0.081147455

Const_6 f4 [32]
00000000: ca3d 883f a528 873f 90b0 833f 1ac2 883f
00000010: 505e 843f eb69 883f e854 8b3f aa26 7e3f
00000020: deb1 853f 1de0 af3f 9a87 823f 8257 883f
00000030: 122e a33f fcb9 7e3f 2d52 793f 379f 803f
00000040: c033 bb3f 74be 803f a3ad 7f3f ff27 803f
00000050: 61cb 7d3f d7a8 723f e309 9c3f ecc7 8b3f
00000060: 42a1 a13f 0663 843f 9a40 7e3f c8ef 7f3f
00000070: 7941 ac3f 9671 b93f 37cf 9d3f 90c1 823f
1.0643857 1.0559279 1.0288258 1.0684235 1.0341282 1.0657324 1.0885286 0.99277747
1.0444906 1.3740269 1.0197632 1.0651705 1.2748435 0.9950254 0.97391015 1.0048589
1.4625168 1.0058122 0.99874324 1.0012206 0.99138457 0.9478888 1.2190517 1.0920386
1.2627337 1.034272 0.99317324 0.9997525 1.3457481 1.4487789 1.2328862 1.021532

Const_7 f4 [32]
00000000: 2da3 123d ed95 1a3d 5ad6 a03c 0a7d 483d
00000010: 68a4 843b a453 d03c 149a 0c3d a04e b5bc
00000020: f155 7c3c 1fdb a63e bdbd 853c 23a2 1c3d
00000030: d455 8e3e c2fa 20bc 2482 cabc ae50 49bb
00000040: 4516 bc3e 19b4 c93b 0617 49bb 0161 23bc
00000050: 56ed 5ebc 8c67 6dbd c42d 813e 5fef c73d
00000060: 3ab1 8c3e c437 203d 6c38 62bc 844b 2cbb
00000070: 3a74 9e3e 63fd b83e 19ca 833e d43e 48bb
0.035800148 0.037740637 0.01963346 0.04894737 0.004047919 0.025430508 0.034326628 -0.022132218
0.015401349 0.3258905 0.016325826 0.038240563 0.27799857 -0.00982541 -0.024720259 -0.0030718255
0.3673574 0.0061555025 -0.003068389 -0.009971858 -0.01360639 -0.057960078 0.2523023 0.09762453
0.27478963 0.039115682 -0.013807397 -0.0026290128 0.3094805 0.3613082 0.25740126 -0.0030555027

MatMul f4 [32, 1536]
00000000: 203d 273c 6242 013c 3136 853c e757 8b3c
00000010: 763a 493c 9ed8 afbb f900 0c3c f819 893c
00000020: bae4 c3bc c645 22bb 343f 3bbc 1983 79bc
00000030: 06a1 8fbb af82 013c 95d7 4e3c 14fd 863b
00000040: e8e2 173d a23e aa3c 69e4 2a3d 8901 4bba
00000050: 11b0 8b3c 7297 b9bb 7043 d73b 73d2 e4bb
00000060: 2ea8 8b3c 8231 0b3b d2aa 5f3c b3dd b53c
00000070: f062 babc d06b 81bc ac5c d83c d781 823c
00000080: c8c6 20bc aeb9 59bc bc5e 30bc 36cb 3bbb
00000090: 7dba 173b 6b34 603c f537 68bc 488c e03b
000000a0: 4528 00ba ead0 8fbb fdcd 3f3c 0841 b1bc
000000b0: 1ba1 3dbb 16a1 863c dcc1 17bc 5d0c 18bc
000000c0: 4bfc 7b3c 82c0 9abc 8ff8 093c 2a8c 953c
000000d0: 06ad d7bb fad5 3abc 5c58 8abc ca67 6dbc
000000e0: 3046 d43c b0d9 ec3b 24ad 12bc 4834 523c
000000f0: 1d9a dcbb 0e5b 163c 29e0 6d3b 04af d2ba
00000100: 6944 96bc b18f 413b 58fc 26bc 427f 82bc
00000110: b1d3 9cbc f67f d6bb f04a a3bb 3afd 05bb
00000120: 0043 f53a 7096 90bb 20c7 6f3c b02d 9e3c
00000130: e9fe d1ba b94a 9abb a7e7 0ab8 762c 82bc
00000140: a44c 543c 2770 86bb 1acf 8c3c 9d31 233c
00000150: a7e2 ef3c 2e6a 8ebc 9ac7 babb a436 0c3b
00000160: 3164 e3bb 92f0 93bc 69f5 8fbb 8488 62bc
00000170: d2eb 6f3c 4c2f e0bb 6ab9 d13b e07f 013c
00000180: cf31 c0bc 2c23 46bb a08d 013d 5308 41bb
00000190: 50f5 95ba 8cb3 ba3c 0ae4 bd3c 1ec6 81bb
000001a0: 3732 4f3b 0b30 9f3b 4565 443c 00ba 1ebc
000001b0: 8791 cebc f4be be3b 8a06 1cbc 6c85 c3bb
000001c0: e211 533b 1153 043c 3fa4 6f3c ed0c cfbc
000001d0: e947 523c d560 8abc 97e1 8e3c a0a9 a03c
000001e0: a991 8b3a af0f a53b a08a 713c 60fb 9fbc
000001f0: 49d1 2d3c 72c3 b0bc b5ad 97bb dad5 ed39
00000200: c896 66bb 68f2 a83b 912d e9bb 55ad aa3b
00000210: 8804 b9bb b29a b83c 26ba 113c 87a7 603c
00000220: 728e b839 5ace b13c d955 a8bb 874e e33b
00000230: c98d a4bc fe33 56bb fe8b 6f3c 26df 81bc
00000240: 0896 8d3c 9a62 003b 7e02 043c efd5 6b3c
00000250: cf70 673b 98f1 8bbc ede0 a8bc a5fc e7ba
00000260: be9f a1bc e70d d5bb 5a80 003c f6ec 8cbc
00000270: ffcb 6bb9 e43b 6d3c f1b2 b2bc eb36 38bc
00000280: 56a0 2c3c 3aea a83b cf7b 94ba d7bd 853b
00000290: a25a d23b 7711 a83b 2407 7bbb 5ae1 b13c
000002a0: c642 f3bb 22a1 8ebc 58b2 22bc d533 2a3b
000002b0: a25f 11bd 94ad dd3b 7ef3 1e3b 9b3b 8ebc
000002c0: 46ee 453c 1d50 753c ab06 31bc 88ee 1b3c
000002d0: ef21 133c 4221 dcba 2c10 26bc 3adf aebc
000002e0: edfc e8bc 589f 9dbb a88f 473b 6b0e 52bc
000002f0: bfab b2bc b13b feba b999 dd3b 749f 4d3c
00000300: eccb 563c e3e6 af3c 5d93 913c 2a93 26bc
00000310: 0110 59bc 79f7 613c ec5e e73b c338 2c39
00000320: 711d 22bc 559f 6d3c 73a9 dabc eaee c8bc
00000330: 322e 10bb 2a54 90bc 4e3e 893b 024b 0f3d
00000340: 218b 0b3d 6a98 05bc ce3b 903b dc39 993a
00000350: 4c38 0fbc 0aef 70bc bfea 92bb 7ca8 b23c
00000360: 52f0 013d a2e9 ffba c604 b5bc 90f7 393c
00000370: 491a c23c bd4f 4abb ae90 2f3c eace 6c3c
00000380: 70e6 01bb 3050 65bc 875d adbc d857 6ebc
00000390: 10ee 80bc 82bb 943c eae3 033d 6483 9f3c
000003a0: fa24 a9bc 42f3 df3c f7fa a03c e6d6 4a3b
000003b0: 368e 993c 3f28 883c 4697 97bb 5c3c fcbc
000003c0: 1a6b 9abc 9863 443c c93b 05bb 1a8c 553c
000003d0: c853 9abc c488 0cbc b69d 1cbc e395 87bc
000003e0: 3e9b a23b 1010 233c b882 61bc f8ad fdbb
000003f0: ba29 abbb e83e 1bbb 8752 3bba c5cc a6bc
0.010207444 0.007889362 0.016261192 0.017009689 0.012282005 -0.005366399 0.008545154 0.016736016
-0.023912776 -0.0024760826 -0.011428643 -0.01522901 -0.004383209 0.007904693 0.012624641 0.0041195247
0.03708163 0.020781819 0.041721735 -0.0007744064 0.017051728 -0.0056638056 0.0065693185 -0.0069830953
0.017047968 0.0021239226 0.013651567 0.022200441 -0.022752255 -0.01579848 0.026411377 0.015931053
-0.009813018 -0.013288898 -0.010764774 -0.0028655059 0.0023151927 0.013684372 -0.014173497 0.0068526603
-0.0004888813 -0.004388918 0.011706826 -0.021637455 -0.0028935138 0.016434234 -0.009262528 -0.009280291
0.015379976 -0.018890623 0.008421077 0.018255312 -0.0065819053 -0.011403555 -0.016887836 -0.014490077
0.025912374 0.007228099 -0.008952413 0.012829848 -0.006732239 0.009176983 0.003629694 -0.0016073887
-0.018343167 0.002953511 -0.010191999 -0.015929822 -0.019143911 -0.006546016 -0.0049832985 -0.0020445124
0.0018711984 -0.004412465 0.014634877 0.019308895 -0.0016021404 -0.0047086147 -3.3117507e-05 -0.015890341
0.012957726 -0.004102725 0.017188597 0.009960559 0.029282881 -0.017384615 -0.005700064 0.0021394873
-0.006939434 -0.018059049 -0.004393269 -0.013826493 0.014643626 -0.0068415757 0.006400277 0.007904023
-0.02346125 -0.0030233366 0.031629205 -0.0029454425 -0.0011440907 0.022790693 0.023180027 -0.003960385
0.0031615624 0.004858022 0.011987035 -0.009687901 -0.025215877 0.005821103 -0.009523043 -0.005966833
0.0032206704 0.008076445 0.014626562 -0.025274718 0.0128345275 -0.016891876 0.017441554 0.019612134
0.0010648269 0.00503727 0.014742523 -0.019529045 0.0106089795 -0.02157757 -0.004628862 0.00045363494
-0.0035185087 0.00515585 -0.0071160276 0.005208651 -0.005646292 0.022534702 0.008894479 0.013711817
0.00035201345 0.021704841 -0.005137187 0.0069368514 -0.02008714 -0.0032684798 0.014620779 -0.015853476
0.017283455 0.001959002 0.008057235 0.014394267 0.0035315042 -0.017082974 -0.020615065 -0.0017699195
-0.019729491 -0.0065019014 0.007843101 -0.017202836 -0.00022487341 0.014479611 -0.021813842 -0.011243562
0.010536274 0.005154875 -0.0011328402 0.0040814686 0.0064194957 0.005129035 -0.0038303817 0.021713901
-0.0074237315 -0.017410818 -0.009930216 0.0025970836 -0.035491593 0.006765077 0.002425402 -0.017362406
0.012080735 0.014972714 -0.010804812 0.0095173195 0.008980258 -0.001679458 -0.010135692 -0.021346677
-0.028440917 -0.004810255 0.0030450616 -0.01282082 -0.02181041 -0.0019396452 0.00676271 0.012550224
0.013110142 0.0214724 0.017770464 -0.010166923 -0.013248445 0.013791912 0.007060876 0.00016424344
-0.009894715 0.01450332 -0.026692128 -0.024527986 -0.002200019 -0.017618258 0.0041883355 0.034983642
0.03406823 -0.008154014 0.0044016605 0.0011690217 -0.00874145 -0.014705429 -0.0044835503 0.021808855
0.031723328 -0.0019524584 -0.022097003 0.011350527 0.023694174 -0.0030870282 0.010715647 0.014453629
-0.001982119 -0.013996169 -0.021162761 -0.014547311 -0.015738517 0.018155817 0.032199778 0.019471832
-0.020647515 0.027337674 0.01965092 0.0030950843 0.01874457 0.016620753 -0.0046261875 -0.0307905
-0.018849898 0.011986636 -0.0020329824 0.013033891 -0.018838778 -0.008577529 -0.009559086 -0.016550964
0.004962354 0.00995256 -0.013764076 -0.007741686 -0.00522348 -0.0023688618 -0.00071457814 -0.020361314

MatMul_1 f4 [32, 32]
00000000: e0a9 0f3d 76ab a33d bf6d e9bd 8eed 74bd
00000010: 5104 113e de0b 1fbe 7890 8c3d 1b6f a0bd
00000020: d7ef f23c 8610 fa3d 389a 25be 4c84 77bd
00000030: 82b8 e03d e224 233e fcc6 323e c707 0f3e
00000040: 4fb6 703b 2bbd 013e 40db 86bc ea3e 87bc
00000050: 9059 8b3c 8f81 b7bd ee0d cb3d ba1c 2f3d
00000060: d86c bc3d b450 453e 6270 e13d fec7 a7bc
00000070: f0c9 26bd 6f6e ccbd 7698 b6bd 81aa 343c
00000080: 3b31 053e 200a ec3c ff66 623d aa64 343d
00000090: e49a 8e3d df33 233d a357 2f3c 5ba0 ac3d
000000a0: cc0d 96bd 76c8 4f3c 3685 0f3e 27c1 e73d
000000b0: 56d0 0dbe 9ae2 08bd c77e 04bd 7afa 0f3d
000000c0: c320 123e 82bf 97bb e38e 8bbd 23f9 0fbd
000000d0: 9018 14be c6ea 13be a28a 6b3d 7e70 6cbd
000000e0: 3a7e cabd 9e88 14bd 4cdd 613e 5297 cabd
000000f0: 89f9 fe3d 9c6d 99bd da31 0dbd 5c80 2f3d
00000100: 0a92 f9bb 5963 bcbd ec7c a93d 6875 633d
00000110: 12e6 b03d dbe5 753d e2c0 d2bd 90cc 3abb
00000120: 82ce d6bd 1d33 cd3d 6ae4 c5bd d987 cf3d
00000130: 3084 bebd 4478 803d efde cebd f1c0 073e
00000140: 9696 df3d 76f8 773d 024a 1b3e ed19 51bc
00000150: 370a 9cbd a619 833d bc2f 2fbe 5039 bc3d
00000160: 618d 0ebe a19b 2b3d 3384 7fbd 6674 87bd
00000170: 4113 e0bd 0300 49bd ad4b b3bc 6af4 383e
00000180: 4ee7 7c3d ae38 febc ba48 1c3e 1384 e7bd
00000190: a008 de3c b5ea 143e 1ce3 1f3e 802f d0bd
000001a0: 0b09 84bd a15c 273d 6511 d139 683e 01be
000001b0: 0439 c9bd 3fc3 0e3e 5148 d33a eac1 923b
000001c0: a7c9 92bb 11c5 d2bc e393 f6bb 3c7f 86bd
000001d0: 3213 e2bd 4164 683d 8bb8 e63d bfa1 1cbe
000001e0: 0ba8 88bd 727f 203e 86ff 693e 1a67 ab3d
000001f0: 1499 733d d634 f4bd 0774 7dbd 5a94 dbbd
00000200: 66fa 323d e4b8 173e 30e2 e3bd 4e67 59bd
00000210: 3d6f ab3d 67e8 313d 4eeb 0c3e 090c 24bc
00000220: 8617 203e 6988 b83d c05f 0bbe bfef 3c3d
00000230: d63e 923d c30f 8c3c 0bba 46be 65fe 2d3c
00000240: 3079 20be 8846 b8bd 308b be3d d68e 423c
00000250: 3886 40bd aabe dc3d 0a51 9c3b 9282 2ebe
00000260: ef82 08be 1e44 15be 70a4 05be f8b5 633d
00000270: f7f0 1e3e b115 4dbe 00d8 123e 2ed5 0a3e
00000280: 24a3 4c3e 5a17 14bc 4674 29bd 8b4f a73c
00000290: dd66 953d 415c 57bc 0fec 193e 211f af3d
000002a0: d6f7 8cbd f1e5 0cbd 42d7 21be 898b 3ebd
000002b0: 0a6b 9ebd 1a84 0a3d eaa9 73bd cfcb 1bbe
000002c0: 9101 8ebd becf e5bd 228b 63bd 2830 e6bd
000002d0: cf31 40bd c842 083e 2b6c 22be 5f7d 0bbe
000002e0: 409f 06be 3640 123e 621a 253e 47ac 5c3d
000002f0: bf4d 0c3e 82ba ebbc ed38 243e 5c3f 153e
00000300: a6f7 c23d 9460 a3bd abcd ee3d 7e46 debd
00000310: 3bd9 3bbd 1b9e f13d 757e 0c3e fea0 babd
00000320: 985a c5bd 1eea e93d 459b 25be 3d16 0e3e
00000330: 3efb febb ee76 cabd b2d1 c2bd efe1 8ebc
00000340: 2b40 6fbd f212 203e 0207 9b3c 0e75 11be
00000350: e7b8 bc3d 622c f2bd 80dc 4ebc 0355 e5bd
00000360: bd19 e9bd c7be acbc edd3 b13d 9c17 0c3e
00000370: 64eb 8f3d 48c8 1f3e afe3 f23d 5e0c e5bd
00000380: fcb3 0d3e cc10 353e ae2d 613d 0862 e3bd
00000390: 652d 403d 55d4 bcbd dc93 18be ddb5 7ebd
000003a0: c01b 003e 0efd f3bd 9f04 8f3c 0600 8f3c
000003b0: ca67 abbd 4cd1 933d d054 1dbd 7a42 4bbd
000003c0: d73c 47bc f0ec dd3d e488 373e c84a dd3d
000003d0: 588d 8bbd 02e0 13bd 0020 31be 6013 ed3d
000003e0: 8251 2abe a413 11be 1eeb f2bc 0d9e b73d
000003f0: 3a95 91bd 4622 67bd 9d14 7e3d b8e8 9c3d
0.035074115 0.07991688 -0.113978855 -0.059796862 0.14161803 -0.1553187 0.06863493 -0.07833692
0.02965538 0.12210183 -0.16172111 -0.060428903 0.10972692 0.15932038 0.17458719 0.1396781
0.0036729758 0.12669818 -0.016461968 -0.016509492 0.01701048 -0.08960258 0.09914766 0.042752005
0.09200448 0.19269067 0.110077634 -0.020481106 -0.040719926 -0.09982001 -0.08915798 0.011026979
0.13007061 0.028813422 0.055274006 0.044041313 0.06963137 0.03984439 0.010702047 0.08429023
-0.0732685 0.012682071 0.1401566 0.11316138 -0.13849005 -0.03341923 -0.032347467 0.035150982
0.1427031 -0.004630984 -0.06814363 -0.035149705 -0.14462495 -0.14445028 0.057505257 -0.05772447
-0.09887357 -0.0362631 0.22057074 -0.09892143 0.12449939 -0.074916095 -0.03447137 0.042847022
-0.007616286 -0.091986366 0.0827578 0.05553189 0.086376324 0.06003366 -0.10290696 -0.0028503276
-0.10488607 0.10019515 -0.09662707 0.10133333 -0.093025565 0.06272939 -0.10101115 0.13257195
0.10917394 0.060539685 0.1516495 -0.012762529 -0.07619136 0.064013764 -0.17108053 0.09190619
-0.1392112 0.041896466 -0.062381934 -0.06613998 -0.109411724 -0.049072277 -0.021886671 0.18061987
0.061744027 -0.031032886 0.15262118 -0.11304488 0.027103722 0.14542659 0.15613979 -0.1016531
-0.06447037 0.040859822 0.00039876546 -0.12621462 -0.09825328 0.13941668 0.0016119574 0.0044786828
-0.0044796052 -0.025728734 -0.0075249537 -0.06567237 -0.110388175 0.056736235 0.112656675 -0.15296076
-0.06672677 0.15673617 0.2285138 0.083692744 0.05947216 -0.1192414 -0.06187823 -0.10721655
0.04369583 0.14816624 -0.11127126 -0.053077035 0.083708264 0.043434527 0.13761637 -0.010012635
0.15633973 0.09010393 -0.13610744 0.046127077 0.07140891 0.01709736 -0.19406907 0.010619734
-0.1567123 -0.08997828 0.09303892 0.011874875 -0.047003 0.10778554 0.004770403 -0.17041996
-0.13331197 -0.14576766 -0.13051009 0.05559346 0.15521608 -0.20027806 0.1434021 0.13557884
0.19984108 -0.009038771 -0.041370653 0.020423671 0.0729501 -0.013144554 0.15031455 0.08550859
-0.068832085 -0.034398977 -0.1580477 -0.04651979 -0.0773526 0.033817388 -0.059488215 -0.15214466
-0.069338925 -0.11221264 -0.05555261 -0.11239654 -0.0469225 0.13306725 -0.15861575 -0.13622044
-0.13146687 0.14282307 0.16123345 0.053875234 0.13701533 -0.028775457 0.1603734 0.14574951
0.095198914 -0.07977405 0.11660322 -0.10853289 -0.045861464 0.11797734 0.13720115 -0.09112738
-0.0963642 0.114216074 -0.16172512 0.1387567 -0.0077814152 -0.09885965 -0.095126525 -0.017441718
-0.058410805 0.15632227 0.01892424 -0.14204809 0.09214955 -0.118248716 -0.0126258135 -0.11197855
-0.11381862 -0.021087063 0.08683 0.13680881 0.07027319 0.15603745 0.118598334 -0.111839995
0.1383819 0.17682189 0.054975204 -0.11102682 0.04691829 -0.092201866 -0.14900154 -0.062185157
0.12510586 -0.11913501 0.017458258 0.017456066 -0.083694056 0.072176546 -0.03841096 -0.049623944
-0.012160501 0.10836208 0.17923313 0.10805279 -0.068140686 -0.036102302 -0.17297363 0.11575961
-0.16632655 -0.14167649 -0.029653128 0.08965693 -0.07108541 -0.05642917 0.062031377 0.07661575

MatMul_2 f4 [1, 32]
00000000: 2f12 443d d072 523e aaba 1b3e 03f4 363e
00000010: 803d 4f3d d697 063e fe4a 083e ffd8 1abe
00000020: 3d36 583e e640 a5be 6f0e 1d3e efdd dc3d
00000030: afc2 a2be 70ee 6e3d 8c92 263d a3d6 163d
00000040: 1187 b7be 07c6 5cbd ae36 633c 338d 0f3e
00000050: 897c 823c fa94 903b 339f b2be 171e 833d
00000060: 7dfe 9fbe b0b8 ad3d 5844 a53d 98e4 f43d
00000070: dd05 a6be 7c35 bbbe 3af1 afbe 726a 313d
0.047868904 0.2055161 0.15207925 0.1786652 0.05059576 0.13143858 0.13309857 -0.1512184
0.2111444 -0.32276076 0.15337537 0.10784518 -0.31789157 0.05833286 0.0406671 0.036825787
-0.35845235 -0.05389979 0.013868017 0.14018707 0.015928524 0.0044122906 -0.34887084 0.064022236
-0.31248847 0.08482492 0.08069676 0.11957663 -0.32426348 -0.36564243 -0.3436373 0.043314405
