openwakeup/ok_home_speaker.tflite (tflite, 206748 bytes, 9 tensors)

Const_1 f4 [32]
-0.024610633 0.009992469 -0.009143121 0.016998999 0.020564515 0.02289118 0.01331571 -0.010547599
0.012286066 0.009203842 -0.008196934 0.01219916 0.024573995 -0.017522857 0.022379044 -0.0057680956
0.014086108 0.020904928 0.020718029 0.001701816 0.02408325 -0.0018669041 -0.0022691505 -0.005506065
0.012264191 -0.003007458 0.010036703 -3.4096676e-05 -0.003196846 -0.0026370226 -0.022757182 0.0007470708
00000000: 3d9c c9bc 74b7 233c 07cd 15bc 7c41 8b3c
00000010: ea76 a83c 4986 bb3c 232a 5a3c d6cf 2cbc
00000020: 7f4b 493c b6cb 163c 6f4c 06bc fcde 473c
00000030: 674f c93c 188c 8fbc 4254 b73c 4b02 bdbb
00000040: 6bc9 663c d040 ab3c dbb8 a93c 780f df3a
00000050: 3c4a c53c e8b2 f4ba 07b6 14bb 396c b4bb
00000060: bfef 483c c618 45bb fc70 243c 0703 0fb8
00000070: 2d82 51bb e6d1 2cbb 456d babc 13d7 433a

Const_2 f4 [32]
0.998847 0.985616 1.0036019 0.975151 0.98853266 1.014659 0.9974578 0.95057046
0.9853422 1.0337456 1.0255828 1.0354698 1.001784 0.997727 0.98975295 0.9990252
1.0484498 0.99959815 1.0106776 1.0298651 1.0155423 0.9823443 1.0334958 0.9966577
1.0311078 0.997016 0.9671755 0.9956206 0.99872637 0.9989457 0.99885297 0.99208206
00000000: 70b4 7f3f 5551 7c3f 0776 803f 7fa3 793f
00000010: 7a10 7d3f 59e0 813f 6559 7f3f 9658 733f
00000020: 633f 7c3f c751 843f 4c46 833f 468a 843f
00000030: 753a 803f 096b 7f3f 7360 7d3f 1ec0 7f3f
00000040: 9a33 863f aae5 7f3f e25d 813f 9fd2 833f
00000050: 4afd 813f eb7a 7b3f 9749 843f f624 7f3f
00000060: 57fb 833f 713c 7f3f d098 773f fee0 7e3f
00000070: 88ac 7f3f e8ba 7f3f d4b4 7f3f 17f9 7d3f

Const_3 f4 [32]
-0.0037274405 0.0004979807 0.0013901866 0.034848798 0.02231674 0.013517143 -0.0035730856 0.0017531224
0.0017853541 0.016031416 0.0036667304 0.020315396 0.009670611 -0.007774226 0.004824512 0.0033086631
0.036209095 -0.002176719 0.0016262978 0.011194581 0.0022623118 0.018386751 0.038905967 -0.0019889309
0.013381213 -0.009492698 0.012324395 -0.0032929871 -0.005474318 -0.0027800614 -0.0041478835 -0.005421457
00000000: 1348 74bb eb8a 023a ec36 b63a 9dbd 0e3d
00000010: 99d1 b63c 0277 5d3c 6e2a 6abb 07c9 e53a
00000020: 8b02 ea3a 5154 833c 874d 703b 796c a63c
00000030: 7b71 1e3c efbe febb f116 9e3b 28d6 583b
00000040: fd4f 143d 49a7 0ebb 8029 d53a 7a69 373c
00000050: 4b43 143b d09f 963c dd5b 1f3d b958 02bb
00000060: e03c 5b3c 4387 1bbc 42ec 493c 28cf 57bb
00000070: e861 b3bb b131 36bb f8ea 87bb 7aa6 b1bb

Const_5 f4 [32]
-0.104609974 0.14515689 -0.14120801 -0.041723996 0.13613492 0.07450372 -0.039265353 -0.12383905
0.001239526 0.13778473 0.0085860435 -0.08273541 -0.009143023 -0.01170967 0.1853725 -0.17314462
0.09302002 -0.1391025 -0.071691826 0.01472746 -0.141375 0.0029568824 0.0697553 -0.08755308
-0.13599102 -0.15310614 -0.043066252 0.10666212 -0.09739089 -0.16502924 -0.0020241393 -0.1628883
00000000: c13d d6bd 02a4 143e d598 10be c8e6 2abd
00000010: f466 0b3e 6895 983d b5d4 20bd 549f fdbd
00000020: 9777 a23a 7117 0d3e 7aac 0c3c 2f71 a9bd
00000030: 9ecc 15bc ead9 3fbc 4ad2 3d3e d34c 31be
00000040: 4881 be3d e370 0ebe 2ad3 92bd 724b 713c
00000050: 9cc4 10be 41c8 413b dedb 8e3d 074f b3bd
00000060: 3b41 0bbe dbc7 1cbe 3d66 30bd ab71 da3d
00000070: e074 c7bd 6dfd 28be 6ca7 04bb 31cc 26be

Const_6 f4 [32]
1.0052707 1.2536993 1.0236398 0.99953085 1.0310594 1.0771731 0.9861528 0.99860793
1.0445814 1.2330427 1.1967411 1.2780002 1.1043538 0.9374769 1.120732 1.075517
1.2660333 1.0000925 1.2638246 0.9674655 1.050334 1.0230844 1.293652 1.0257508
1.0141684 1.2430469 1.0324329 1.2455245 1.3081253 0.99843365 1.0416749 1.2392987
00000000: b6ac 803f 3879 a03f a106 833f 41e1 7f3f
00000010: c1f9 833f cfe0 893f 8374 7c3f c5a4 7f3f
00000020: d8b4 853f 58d4 9d3f d02e 993f 8395 a33f
00000030: 775b 8d3f 7cfe 6f3f 2574 8f3f 8baa 893f
00000040: 610d a23f 0803 803f 01c5 a13f d2ab 773f
00000050: 5871 863f 6ef4 823f 6496 a53f cd4b 833f
00000060: 45d0 813f 291c 9f3f c326 843f 596d 9f3f
00000070: a670 a73f 5999 7f3f 9a55 853f 57a1 9e3f

Const_7 f4 [32]
0.0035735804 0.24812825 0.025300995 -0.001149027 0.020006696 0.04107924 -0.013113951 -0.006911753
0.0086852135 0.2425835 0.2397595 0.25886685 0.0487762 -0.056236476 0.061030857 0.036417205
0.25420678 3.8365968e-05 0.2516888 -0.058202382 0.032958485 0.016026847 0.2648578 0.02386946
0.012436297 0.250894 0.014837575 0.24464507 0.27015242 -0.0056521124 0.024773626 0.24169637
00000000: bb32 6a3b 5515 7e3e 0844 cf3c f39a 96ba
00000010: 15e5 a33c b542 283d e6db 56bc fd7b e2bb
00000020: 6d4c 0e3c cf67 783e 8483 753e 328a 843e
00000030: 8dc9 473d 3858 66bd 7efb 793d 352a 153d
00000040: 6427 823e 25eb 2038 5bdd 803e 9f65 6ebd
00000050: 7aff 063d bc4a 833c 719b 873e e389 c33c
00000060: 9cc1 4b3c 2e75 803e 4d19 733c 3d84 7a3e
00000070: 6b51 8a3e 5b35 b9bb 0ff2 ca3c 417f 773e

MatMul f4 [32, 1536]
0.02113891 -0.013501699 0.002415973 0.015018779 -0.0151733775 0.0034913975 0.021564081 -0.011608115
-0.022039205 -0.022268832 0.003275856 0.013854985 0.004021134 0.011243719 -0.017243227 0.024391346
-0.0013194947 -0.011072156 -0.005327117 0.016816124 0.01538758 -0.02472556 -0.019079013 0.002936963
-0.0067442222 -0.004477603 -0.017733984 -0.013121542 -0.008341918 0.012259157 -0.015488995 -0.019125694
0.007207502 -0.03157985 -0.0010059273 -0.007610909 0.019244004 0.022647878 -0.0023612373 0.014566688
-0.020938056 0.014619917 -0.02259903 -0.01686452 0.022276955 -0.011731724 -0.025829226 -0.029880885
-0.017776158 0.023794964 -0.013494129 -0.008392129 0.01874064 0.014015673 -0.015805565 -0.011416254
-0.016403366 -0.011721572 0.0154749155 0.00094144075 -0.02166559 0.018961031 -0.016160803 0.018237477
0.01805604 -0.018630797 -0.01889595 -0.015216612 0.011055953 0.0018685181 -0.028673006 0.024493482
0.020738197 -0.01508042 0.006515044 -0.00622792 0.022006482 -0.024919879 -0.022830576 0.012378031
-0.0050132596 -0.027640173 0.018904796 0.01694453 0.020591486 -0.015506516 0.003326116 0.007568569
-0.0083804475 -0.022513181 -0.0035497865 0.012672464 -0.003360794 -0.008512958 0.0047764066 -0.021425087
0.0104484 0.00888438 -0.015977284 0.006062068 0.0021822199 -0.000404871 -0.024574997 -0.017965065
0.0011581063 -0.01662616 -0.024079535 0.014480778 0.005193639 0.02013858 -0.0005195262 -0.020870026
-0.027509041 0.02544813 0.0063369777 -0.016969865 -0.0014210428 0.00060603634 -0.005231848 0.00871394
0.0004773425 0.022888705 0.0048504244 -0.028764935 -0.0014633203 -0.031569928 0.018024126 -0.022593051
-0.00068727456 -0.0067816726 -0.0018471781 0.008849544 -0.013586621 -0.0011662603 -0.016468078 -0.022963937
-0.009543777 -0.0102085145 -0.02104637 -0.004823683 -0.007993254 -0.013641786 -0.008261806 -0.03492623
-0.01935058 0.018072298 0.020393474 -0.0233436 0.02399718 -0.01037514 -0.021478122 0.02131209
0.003320047 0.017964143 0.016935231 0.019334445 -0.0023857772 0.0111478735 -0.00404691 -0.017715687
-0.0047254157 -0.023194892 -0.0099413395 -0.019773668 0.009766774 0.003153542 -0.030456314 0.020826975
0.002311026 0.0032162738 0.014140771 0.008812783 -0.014741105 -0.020847706 -0.020153536 0.025707843
-0.0122701265 -0.018718401 0.0083529735 0.022253351 -0.0165802 -0.002037401 0.011586134 -0.002086912
-0.020761793 0.013693025 -0.015093312 0.011550464 -0.009094828 -0.014247591 0.005956882 -0.02043377
0.01958376 0.023303133 0.0051887776 -0.00321168 0.01963437 0.025728153 0.016337877 0.010926354
0.007775793 0.006912759 -0.010470214 0.025837352 0.013551572 0.009307629 0.00037566945 0.007300125
-0.018077109 0.021118425 -0.012195293 -0.002546938 0.006118497 0.01987801 -0.010078161 -0.008927342
0.0022241448 -0.009485594 0.0056942143 0.020688733 -0.023962475 -0.0072967075 0.008469462 -0.006439215
-0.022023369 -0.015137437 -0.020766264 -0.005109309 -0.0019676932 0.023290409 -0.0146071445 0.020889593
0.014735418 -0.018573634 0.009670925 0.0028418235 -0.014458302 -0.018799929 -0.02061375 -0.00014275066
-0.018128788 0.018477272 0.011200875 -0.025542827 0.016669275 -0.0088541005 0.019546408 0.008619375
-0.015526073 0.017431 0.027278904 -0.015814746 0.0031253456 0.00224018 -0.0004119784 0.0052676657
00000000: 822b ad3c 3b36 5dbc 4d55 1e3b 5311 763c
00000010: c299 78bc eecf 643b 28a7 b03c f72f 3ebc
00000020: 908b b4bc 206d b6bc beaf 563b 0500 633c
00000030: b8c3 833b 9337 383c ab41 8dbc 5cd0 c73c
00000040: e5f2 acba fd67 35bc 198f aebb f8c1 893c
00000050: 301c 7c3c 428d cabc 974b 9cbc 107a 403b
00000060: a3fe dcbb dbb8 92bb dc46 91bc bcfb 56bc
00000070: 8aac 08bc a2da 483c 8ec5 7dbc 7dad 9cbc
00000080: e92c ec3b df59 01bd 52d9 83ba ef64 f9bb
00000090: 9aa5 9d3c 0b88 b93c fdbe 1abb 1ea9 6e3c
000000a0: 4986 abbc 6088 6f3c 9a21 b9bc 7627 8abc
000000b0: 297e b63c 6b36 40bc d097 d3bc c2c8 f4bc
000000c0: 4e9f 91bc a8ed c23c 7b16 5dbc 247f 09bc
000000d0: f885 993c fea1 653c ac7a 81bc 3d0b 3bbc
000000e0: 5a60 86bc d60b 40bc 808a 7d3c 05cb 763a
000000f0: 097c b1bc 2a54 9b3c a963 84bc c366 953c
00000100: 43ea 933c 9d9f 98bc aecb 9abc 194f 79bc
00000110: 0724 353c 10e9 f43a a7e3 eabc 8ea6 c83c
00000120: 27e3 a93c de13 77bc 267c d53b 9413 ccbb
00000130: f046 b43c c624 ccbc 3007 bbbc 3acd 4a3c
00000140: 4546 a4bb a56d e2bc 3bde 9a3c 41cf 8a3c
00000150: 7aaf a83c 0b0f 7ebc f7fa 593b c201 f83b
00000160: 254e 09bc 906d b8bc 89a3 68bb 2ba0 4f3c
00000170: c440 5cbb ef79 0bbc 6783 9c3b aa83 afbc
00000180: c42f 2b3c ca8f 113c cbe2 82bc 50a4 c63b
00000190: 9303 0f3b de44 d4b9 8151 c9bc 792b 93bc
000001a0: 99cb 973a 9633 88bc 7242 c5bc c940 6d3c
000001b0: 672f aa3b aaf9 a43c d030 08ba 9ef7 aabc
000001c0: a45a e1bc 9978 d03c 6ca6 cf3b 6304 8bbc
000001d0: 4942 baba 69de 1e3a ec6f abbb eac4 0e3c
000001e0: d343 fa39 1881 bb3c 4ff0 9e3b 71a4 ebbc
000001f0: e2cc bfba 784f 01bd 55a7 933c 1015 b9bc
00000200: 372a 34ba cb38 debb 031d f2ba aefd 103c
00000210: 6b9a 5ebc 34dd 98ba 10e8 86bc de1e bcbc
00000220: 815d 1cbc 9d41 27bc 7069 acbc fc0f 9ebb
00000230: 23f6 02bc cc81 5fbc 875c 07bc ce0e 0fbd
00000240: 1c85 9ebc 5b0c 943c 3710 a73c 143b bfbc
00000250: bc95 c43c 7efc 29bc e3f2 afbc b196 ae3c
00000260: 2595 593b 8a29 933c c1bb 8a3c 4563 9e3c
00000270: b35a 1cbb 92a5 363c f19b 84bb 7d20 91bc
00000280: a9d7 9abb 3703 bebc 00e1 22bc 63fc a1bc
00000290: d204 203c a8ab 4e3b 857f f9bc 559d aa3c
000002a0: 9574 173b 1fc8 523b b1ae 673c 7e63 103c
000002b0: ad84 71bc cfc8 aabc 0719 a5bc 4199 d23c
000002c0: a408 49bc 5557 99bc e9da 083c a94c b63c
000002d0: 33d3 87bc eb85 05bb c5d3 3d3c 93c4 08bb
000002e0: a314 aabc b658 603c f049 77bc 283e 3d3c
000002f0: 7902 15bc ba6e 69bc f331 c33b b964 a7bc
00000300: 1f6e a03c 36e6 be3c 9f06 aa3b 0d7b 52bb
00000310: 42d8 a03c d9c3 d23c 03d7 853c 7304 333c
00000320: 14cc fe3b 6d84 e23b 438b 2bbc dba8 d33c
00000330: 6a07 5e3c 077f 183c 80f5 c439 e335 ef3b
00000340: 7216 94bc 8c00 ad3c c4ce 47bc 87ea 26bb
00000350: ac7d c83b 35d7 a23c df1e 25bc fc43 12bc
00000360: f5c2 113b 7769 1bbc 8896 ba3b 6b7b a93c
00000370: f44c c4bc 3819 efbb 80c3 0a3c 0d00 d3bb
00000380: 5a6a b4bc 0303 78bc 031e aabc fe6b a7bb
00000390: 6af4 00bb 87cb be3c ce52 6fbc a720 ab3c
000003a0: d36c 713c bc27 98bc cd72 1e3c e33d 3a3b
000003b0: 84e2 6cbc 4f02 9abc 2bde a8bc 57af 15b9
000003c0: d382 94bc a65d 973c e083 373c 313f d1bc
000003d0: 018e 883c ca10 11bc ca1f a03c 4738 0d3c
000003e0: 1261 7ebc 75cb 8e3c 0278 df3c ed8d 81bc
000003f0: 99d2 4c3b fccf 123b cefe d7b9 629c ac3b

MatMul_1 f4 [32, 32]
0.1739894 -0.044148732 0.1571505 -0.017414205 0.022883315 -0.0426499 0.018129801 -0.03021083
0.09072774 0.07709727 -0.017652145 0.02500837 -0.17099221 0.075620495 -0.092293635 0.14497896
0.1626301 -0.02462328 0.06173555 0.06021886 0.14388506 -0.067195624 -0.13350005 0.11407529
0.19985531 0.08939065 -0.0043189866 -0.010366534 -0.04604154 -0.11814851 -0.06832081 0.041956626
0.054378994 -0.071093954 -0.17694697 0.17145056 0.00082373276 0.040105764 -0.1485192 -0.04091896
0.035631232 -0.05901974 0.102157414 -0.12198575 0.19598034 0.007704687 0.03991131 -0.020334583
0.17516726 0.08791133 -0.19729234 -0.033080343 0.04294564 0.14680791 0.077415206 -0.1229312
-0.20390756 0.16247083 0.070401125 -0.16032934 0.00802486 -0.06129435 0.14244822 -0.027433533
0.0556701 -0.0397054 0.16055898 0.015706956 0.10946537 0.049869414 0.17808329 0.12625818
0.028045006 -0.02696206 -0.17215855 0.20615438 -0.07909727 0.054308143 0.1472887 0.01069239
-0.090328775 -0.11661658 -0.01541504 4.540571e-05 -0.024069807 -0.14216474 0.023496056 -0.013029649
0.05261374 -0.14312212 -0.14817898 0.120864764 -0.01651795 0.15808906 -0.005793819 0.11235129
0.13933934 0.15999882 -0.102231376 -0.027473472 0.0309701 0.078325145 0.1728437 0.03535287
0.05488905 -0.13211308 0.101896726 -0.11463011 0.016967852 -0.055245336 -0.08787548 -0.12510084
-0.038484976 0.17652746 0.019335596 -0.06312479 -0.09214566 -0.06470082 -0.093417004 0.16643989
0.07699903 -0.13940069 -0.13265136 -0.056391288 0.13146073 0.03866054 0.0034829457 0.14642407
0.08462689 -0.18291812 -0.17200917 -0.06841171 -0.07778854 0.019167824 0.10775908 0.101186894
-0.15197214 0.0334009 -0.046019677 -0.087937035 -0.107449725 0.09787551 0.100891285 -0.101755075
0.14299837 -0.016557554 0.059524354 -0.1440871 0.12854363 0.11229413 0.085840926 0.117521785
0.1572005 0.071335904 0.060087755 -0.16029894 0.08447567 0.0069338637 0.12377393 -0.04736256
0.07344204 -0.14530939 -0.12968245 -0.1126383 0.14908582 -0.023657953 0.021026023 -0.13224842
-0.013223011 -0.16083437 -0.005502186 0.19068174 -0.025562096 0.030016232 0.024457967 -0.15027595
0.18260029 0.06816536 -0.01017695 -0.09682368 0.18472998 0.032351214 0.23303807 -0.15655862
-0.00017949328 -0.07561011 0.090044156 0.028552111 0.039563015 0.07739384 -0.09213338 -0.156302
0.15466063 0.090261646 0.04474589 0.04184531 -0.10211514 0.062478013 0.121309854 0.06336187
0.10380663 -0.03941899 0.011355389 -0.087199785 -0.12336026 -0.038772542 0.087719694 0.071850576
0.080188885 -0.035750028 0.006247237 -0.118499465 0.11332547 0.07899153 -0.079356916 -0.031807262
0.16956227 -0.074566215 -0.14289835 0.17288837 -0.09089145 0.0440136 0.014845999 0.009199224
0.1479529 -0.055146743 0.0198525 0.080015935 -0.093960546 0.08688264 0.12571058 -0.16790754
0.033338044 -0.054915093 0.08239887 -0.07195696 0.065488994 -0.05317124 -0.0012106746 0.06340142
0.12597424 0.17608477 0.14170916 -0.17031388 0.06278499 0.067641355 -0.015003313 -0.0733692
0.031457644 0.12488614 -0.037923068 -0.06364276 0.09228529 0.1642876 0.07859357 0.11542608
00000000: 472a 323e 4dd5 34bd 10ec 203e 3ca8 8ebc
00000010: ca75 bb3c a9b1 2ebd f384 943c b47c f7bc
00000020: 77cf b93d 2ce5 9d3d 3b9b 90bc 5ade cc3c
00000030: 9518 2fbe ebde 9a3d 7204 bdbd 5d75 143e
00000040: 8188 263e c3b6 c9bc 6bde 7c3d 0da8 763d
00000050: 9b56 133e dc9d 89bd 3db4 08be 4ea0 e93d
00000060: dfa6 4c3e 7212 b73d 4986 8dbb 65d8 29bc
00000070: 0e96 3cbd d9f7 f1bd c8eb 8bbd b6da 2b3d
00000080: 82bc 5e3d b599 91bd 9631 35be bc90 2f3e
00000090: c5ef 573a f145 243d 6b15 18be a49a 27bd
000000a0: 0ef2 113d afbe 71bd e837 d13d aad3 f9bd
000000b0: 12af 483e 9977 fc3b 0b7a 233d b694 a6bc
000000c0: 0c5f 333e db0a b43d 0107 4abe 417f 07bd
000000d0: c4e7 2f3d d054 163e dd8b 9e3d 5ac3 fbbd
000000e0: 25cd 50be c15e 263e 772e 903d 602d 24be
000000f0: b47a 033c c90f 7bbd f2dd 113e 4abc e0bc
00000100: 5506 643d 21a2 22bd 9369 243e e0ab 803c
00000110: 612f e03d df43 4c3d 775b 363e d349 013e
00000120: a4be e53c 8adf dcbc 554a 30be 221a 533e
00000130: c0fd a1bd 3772 5e3d d9d2 163e 222f 2f3c
00000140: 4bfe b8bd acd4 eebd 5d8f 7cbc 0372 3e38
00000150: 0b2e c5bc a293 11be cd7a c03c 4f7a 55bc
00000160: 8181 573d 9b8e 12be 3bbc 17be f287 f73d
00000170: a750 87bc 19e2 213e 14da bdbb 6f18 e63d
00000180: f9ae 0e3e bbd6 233e af5e d1bd 0c10 e1bc
00000190: 02b5 fd3c ef68 a03d f0fd 303e 2cce 103d
000001a0: 57d3 603d a748 07be 3baf d03d 31c3 eabd
000001b0: 2a00 8b3c ef48 62bd 0ff8 b3bd 6f1a 00be
000001c0: 6ca2 1dbd 9dc3 343e af65 9e3c 9247 81bd
000001d0: ddb6 bcbd dd81 84bd 6a51 bfbd 386f 2a3e
000001e0: abb1 9d3d 0ebf 0ebe c2d5 07be 8dfa 66bd
000001f0: a49d 063e 845a 1e3d 2242 643b 31f0 153e
00000200: dd50 ad3d e34e 3bbe 2c23 30be 701b 8cbd
00000210: 994f 9fbd d705 9d3c cbb0 dc3d 133b cf3d
00000220: 969e 1bbe 62cf 083d 217f 3cbd 5518 b4bd
00000230: 9a0e dcbd f572 c83d 17a0 ce3d f764 d0bd
00000240: 2a6e 123e b5a3 87bc cfcf 733d 928b 13be
00000250: f1a0 033e 77fa e53d 5ecd af3d 43af f03d
00000260: 2bf9 203e 8f18 923d 941e 763d 6825 24be
00000270: 9401 ad3d 7735 e33b 307d fd3d 3eff 41bd
00000280: c868 963d fccb 14be 7acb 04be e9ae e6bd
00000290: f4a9 183e 53ce c1bc c43e ac3c 216c 07be
000002a0: 54a5 58bc c4b1 24be ae4b b4bb 1342 433e
000002b0: 9a67 d1bc 9ae4 f53c 135c c83c f0e1 19be
000002c0: 92fb 3a3e 489a 8b3d 39bd 26bc 7e4b c6bd
000002d0: db29 3d3e b582 043d 88a1 6e3e e750 20be
000002e0: 5c36 3cb9 79d9 9abd 1269 b83d 1ee6 e93c
000002f0: d40c 223d a980 9e3d 6db0 bcbd a20d 20be
00000300: 5b5f 1e3e 19db b83d 7747 373d fd65 2b3d
00000310: be21 d1bd f2e8 7f3d 4d71 f83d dec3 813d
00000320: 9298 d43d cf75 21bd f40b 3a3c cd95 b2bd
00000330: 4ea4 fcbd f5cf 1ebd 62a6 b33d 6526 933d
00000340: 123a a43d 9f6e 12bd 9fb5 cc3b d9af f2bd
00000350: 2f17 e83d 50c6 a13d e185 a2bd 5548 02bd
00000360: bba1 2d3e 2cb6 98bd f253 12be a609 313e
00000370: 4c25 babd 9b47 343d a23c 733c 58b8 163c
00000380: f780 173e 8de1 61bd b6a1 a23c 65df a33d
00000390: 636e c0bd 87ef b13d 46ba 003e f4ef 2bbe
000003a0: 798d 083d a6ee 60bd bdc0 a83d 2c5e 93bd
000003b0: 181f 863d 16ca 59bd 80af 9eba 9bd8 813d
000003c0: 64ff 003e 914f 343e 351c 113e c366 2ebe
000003d0: 6b95 803d 8d87 8a3d 75d0 75bc 9742 96bd
000003e0: bbd9 003d 4ec4 ff3d 3855 1bbd 2357 82bd
000003f0: 1200 bd3d 023b 283e aaf5 a03d 8264 ec3d

MatMul_2 f4 [1, 32]
0.110819615 -0.3207986 0.09821054 0.12802297 0.12980014 0.21723925 0.0039172294 0.12997979
0.111409314 -0.30772442 -0.26069266 -0.31505474 0.2657977 -0.039347317 0.14553154 0.13874368
-0.32796675 -0.1722095 -0.31908944 -0.08694403 0.16039872 0.19400716 -0.31221768 0.13565214
0.059353553 -0.29029363 0.07187825 -0.31914392 -0.31986836 -0.12937827 0.0793297 -0.3614135
00000000: 65f5 e23d b73f a4be 9c22 c93d 7418 033e
00000010: 54ea 043e f773 5e3e 1a5c 803b 6c19 053e
00000020: 912a e43d 0e8e 9dbe 8279 85be db4e a1be
00000030: a316 883e a72a 21bd 3806 153e d312 0e3e
00000040: 42eb a7be b057 30be b15f a3be b60f b2bd
00000050: 903f 243e d0a9 463e ffda 9fbe 65e8 0a3e
00000060: b61c 733d 5ea1 94be e734 933d d566 a3be
00000070: c9c5 a3be bd7b 04be 9c77 a23d 310b b9be
