openwakeup/ok_smart_home.tflite (tflite, 206748 bytes, 9 tensors)

Const_1 f4 [32]
0	0xbb694523	-0.0035594187
1	0xbcbd6f96	-0.023124497
2	0xbbcb9e87	-0.0062139663
3	0xbbeb273a	-0.007176307
4	0x3c4ac3a5	0.012375747
5	0x3cc6fef1	0.024291487
6	0x3c008f04	0.007846598
7	0x3c9877fb	0.018611899
8	0x3a12d86f	0.0005601709
9	0x3c7214b8	0.014775448
10	0x3b895fc3	0.004192324
11	0x3c77733a	0.015103156
12	0x3c7ddcb4	0.015494514
13	0xbca76bc7	-0.020437134
14	0xbc785f7e	-0.015159486
15	0xbca4ead1	-0.0201315
16	0x3c07b1a9	0.008282104
17	0xbc82878a	-0.01593377
18	0x3bf7596e	0.0075485026
19	0x3c00c628	0.007859744
20	0x3c70bc5e	0.014693348
21	0xba8988bc	-0.001049302
22	0x3c291e2f	0.010322138
23	0x3cc29856	0.02375428
24	0xbcb97997	-0.022640986
25	0xbc212fa3	-0.009838018
26	0xbccb0c7c	-0.024786226
27	0x3c1246d2	0.008928018
28	0x3c6db02a	0.014507333
29	0x3cde9626	0.027171206
30	0x3be3ab7e	0.0069479337
31	0xbc481dd1	-0.01221414

Const_2 f4 [32]
0	0x3f7eabfc	0.9948118
1	0x3f834b1c	1.0257297
2	0x3f7c7214	0.9861157
3	0x3f7c8be4	0.98650956
4	0x3f7c8ac4	0.9864924
5	0x3f810792	1.0080435
6	0x3f854ddb	1.0414385
7	0x3f8277c6	1.0192802
8	0x3f8323b2	1.0245268
9	0x3f82ae37	1.0209416
10	0x3f7eee97	0.9958281
11	0x3f7ebc9b	0.9950654
12	0x3f7f81e3	0.99807566
13	0x3f7f8774	0.9981606
14	0x3f7f244f	0.9966478
15	0x3f84ac24	1.0365033
16	0x3f8082de	1.0039937
17	0x3f7dfa74	0.99210286
18	0x3f7e754c	0.9939773
19	0x3f7df70c	0.9920509
20	0x3f83f59b	1.0309328
21	0x3f7eb4b4	0.9949448
22	0x3f73b55b	0.951986
23	0x3f7f7818	0.99792624
24	0x3f801584	1.0006566
25	0x3f8312df	1.0240134
26	0x3f7fe320	0.9995594
27	0x3f74d1ef	0.95632833
28	0x3f7dbdd6	0.9911779
29	0x3f7a0ca6	0.9767555
30	0x3f778b4f	0.96696943
31	0x3f793007	0.9733891

Const_3 f4 [32]
0	0x3cb363ee	0.021898236
1	0x3bca4402	0.006172658
2	0xbb975482	-0.0046182284
3	0xba87801b	-0.0010337861
4	0xbc1b982c	-0.00949673
5	0x3ca197bc	0.019725673
6	0x3c6ca731	0.014444158
7	0x3c9b55af	0.018961756
8	0x3cb205c2	0.021731261
9	0x3bf31b68	0.0074190386
10	0xbc13665c	-0.008996572
11	0xbc51b517	-0.012799523
12	0xbc25ddeb	-0.01012371
13	0x386016a5	5.342685e-05
14	0x3b9609a9	0.0045787883
15	0x3c046d3c	0.008082684
16	0xbb024d75	-0.0019882594
17	0xbbff1b22	-0.007785217
18	0xbc6fa42a	-0.014626542
19	0xbcac255b	-0.021013906
20	0x3d088cb3	0.033337306
21	0x3c6dc07e	0.014511226
22	0x3b58a387	0.0033056454
23	0xbc39d055	-0.011341174
24	0x3b65d768	0.003507102
25	0x3c613158	0.013744675
26	0xbbef319b	-0.0072996146
27	0x3aa265de	0.0012389978
28	0xbce1f67e	-0.027583357
29	0x3ca05150	0.019570023
30	0xbd601285	-0.05470516
31	0xbcaa4bde	-0.02078813

Const_5 f4 [32]
0	0x3c928a06	0.01788808
1	0x3d11d29e	0.03560125
2	0xbd0795ed	-0.033101965
3	0x3d47936b	0.048724573
4	0x3d4fb947	0.050713804
5	0x3d7f26c6	0.062292837
6	0xbde9781a	-0.11399861
7	0xbd43da65	-0.0478157
8	0x3e13842a	0.14405885
9	0xbd34db37	-0.044154372
10	0xbcb5425c	-0.02212637
11	0x3da11af7	0.07866471
12	0xbbe5c1bf	-0.0070116217
13	0xbdabe3a7	-0.083930306
14	0x3d8baa58	0.068196
15	0xbe0f6b33	-0.14005737
16	0x3c427832	0.011869477
17	0x3d87c6af	0.06629693
18	0x3d9f74b5	0.07785932
19	0x3d6ccb6b	0.057811182
20	0xbdf8a688	-0.12141138
21	0x3dbc9648	0.092083514
22	0x3c8d2aca	0.017232317
23	0x3df99240	0.12186098
24	0x3dc743d4	0.09729734
25	0x3dcaca43	0.099018596
26	0xbcfe12a6	-0.031014752
27	0x3bbf3321	0.0058349525
28	0x3d9d13ae	0.07669769
29	0x3df59c8b	0.11992749
30	0x3e0544dd	0.1301455
31	0x3da202fc	0.079107255

Const_6 f4 [32]
0	0x3f7bb8f3	0.98329085
1	0x3f7fa379	0.99858814
2	0x3f85a515	1.0441004
3	0x3f7c0b0c	0.98454356
4	0x3fa3b439	1.2789375
5	0x3f701ae2	0.9379102
6	0x3f8091e5	1.0044523
7	0x3f6e44b1	0.93073565
8	0x3f8a5930	1.0808468
9	0x3f8dfea2	1.1093333
10	0x3f85ca88	1.0452433
11	0x3f6e31c1	0.9304467
12	0x3f9ba5f3	1.2160019
13	0x3f803a6c	1.0017829
14	0x3f7598e2	0.95936406
15	0x3f9c2353	1.219828
16	0x3f855c9f	1.0418891
17	0x3f85bd8f	1.0448474
18	0x3f88971f	1.0671118
19	0x3f9f443c	1.2442698
20	0x3f8e1267	1.1099366
21	0x3f7e4a4b	0.9933211
22	0x3fac050e	1.3439043
23	0x3f83a9c2	1.0286181
24	0x3f876135	1.057654
25	0x3f9e0a67	1.2346925
26	0x3fa61282	1.2974398
27	0x3f83b699	1.0290099
28	0x3f9b7db7	1.214774
29	0x3f847cc0	1.0350571
30	0x3f7ffb86	0.9999317
31	0x3fa7d8e7	1.3113068

Const_7 f4 [32]
0	0xbc1b525b	-0.009480084
1	0xbbe34eb9	-0.0069368747
2	0x3cf5362a	0.029933054
3	0xbc499d0c	-0.012305509
4	0x3e847140	0.25867653
5	0xbd8a7ff5	-0.06762687
6	0x3b9979ef	0.004683725
7	0xbd9f55a2	-0.07780005
8	0x3d33b285	0.04387142
9	0x3da72e86	0.081631705
10	0x3cae489d	0.02127486
11	0xbd6fc3ec	-0.058536455
12	0x3e6a96c3	0.22909074
13	0xbcc68a85	-0.024235973
14	0xbd7e3535	-0.06206246
15	0x3e6a26d9	0.22866382
16	0x3ce38be6	0.02777667
17	0x3d28fcd3	0.041256737
18	0x3d25c2b0	0.04046887
19	0x3e80ac82	0.25131613
20	0x3dbc2b16	0.091879055
21	0xbc551c70	-0.013007268
22	0x3e8f117e	0.27943033
23	0x3c51e27c	0.012810346
24	0x3d5140e1	0.051087264
25	0x3e7284e4	0.23683506
26	0x3e87642a	0.26443607
27	0x3bcc87b3	0.0062417625
28	0x3e6f128f	0.23346923
29	0x3cdcc5a8	0.026949719
30	0xb9d49d5d	-0.00040553036
31	0x3e8899f4	0.26679957

MatMul f4 [32, 1536]
0	0xbb09eaec	-0.0021044565
1	0xbc7562df	-0.014977186
2	0xbc9ec1a3	-0.019379443
3	0x3c36afb6	0.011150291
4	0x3bb8c448	0.005638633
5	0x3ccb10bd	0.024788255
6	0xbbaf9524	-0.005358355
7	0x3bcdd944	0.0062820036
8	0xbb1871bc	-0.002326115
9	0xbc49a000	-0.012306213
10	0x3c26526b	0.010151486
11	0xbd2caf83	-0.04215957
12	0x3ca214ba	0.019785274
13	0xbb91a104	-0.0044442434
14	0xba26c877	-0.0006362269
15	0x3bc2f6ff	0.0059498544
16	0x3cfff097	0.031242652
17	0xbcbe0e80	-0.023200274
18	0xbc4b7484	-0.012417916
19	0xbabdfafb	-0.0014494354
20	0xbbf13c5c	-0.0073619317
21	0xbc5f3cba	-0.013625318
22	0x3c9eb72e	0.019374456
23	0xbc0b19ee	-0.008490069
24	0x3c7a4353	0.01527484
25	0xbc3e85e5	-0.011628603
26	0x3a166477	0.00057370163
27	0xb9ec2771	-0.00045042814
28	0x3c5b0a41	0.013369144
29	0xbad156ad	-0.0015971266
30	0x3b8b11c0	0.0042440593
31	0xb9eea717	-0.0004551939
32	0x3ba183c8	0.0049290396
33	0xbc9a406e	-0.01882955
34	0x3c48963f	0.012242853
35	0x3c363758	0.011121593
36	0x3bf36d5c	0.007428808
37	0xbc4f5a39	-0.012655788
38	0x3c5f1f0d	0.013618243
39	0xbc022464	-0.0079432465
40	0x3ce3fab7	0.027829511
41	0x3c805422	0.015665118
42	0xbc59855c	-0.013276424
43	0x3b8324a4	0.0040021706
44	0x3cbe2f55	0.023215929
45	0x3c9ae325	0.01890714
46	0xbc484209	-0.012222775
47	0x3ba8c633	0.0051505803
48	0x3ca76ce0	0.020437658
49	0xbc4d06bf	-0.012513815
50	0xbcc01422	-0.0234471
51	0x3c545110	0.01295878
52	0x3d21805b	0.03942905
53	0xbc4d632e	-0.012535853
54	0xbc055cfe	-0.008139847
55	0xbc31b403	-0.010846141
56	0x3ccd9487	0.025095237
57	0xbbd5afac	-0.006521186
58	0xbb17a010	-0.0023136176
59	0x3cc69ba0	0.02424413
60	0xbba52fd9	-0.0050411043
61	0x3bb630cd	0.0055600167
62	0x3d34b5ed	0.04411881
63	0xbbca6c98	-0.006177496
64	0x3b784c01	0.0037887099
65	0xbc3692c7	-0.011143393
66	0xbc234161	-0.009964318
67	0xbcaab49e	-0.020838078
68	0x3b64dbed	0.0034921125
69	0x3b63210a	0.0034657144
70	0x3cb79959	0.022411989
71	0x3bcb2dbc	0.0062005203
72	0xbc547b7f	-0.012968897
73	0x3b61dbbc	0.0034463247
74	0xbc8d029c	-0.017213158
75	0x3bd2d085	0.006433549
76	0xbcedea0b	-0.029042264
77	0x3bc7d7c2	0.0060987184
78	0x3c536d65	0.0129045
79	0x3c67dceb	0.014151792
80	0x3cd67179	0.026177155
81	0x3ce18e5d	0.027533704
82	0x3a319250	0.00067738164
83	0xbc86bd47	-0.016447676
84	0xbb6e1011	-0.0036325494
85	0xbbf445fb	-0.0074546314
86	0x3c57faf9	0.013182395
87	0xbd0bcf0d	-0.034133006
88	0xbcf656a3	-0.030070608
89	0x3c50fcb1	0.012755559
90	0xbc65940c	-0.014012348
91	0x3ccafdd2	0.024779234
92	0x3c4bee8d	0.012447012
93	0x3cac1f88	0.021011129
94	0xbb8817d4	-0.004153231
95	0xbc849e1b	-0.016188672
96	0xbb5fe701	-0.0034164789
97	0xbcad195d	-0.021130258
98	0xbbbdd1a7	-0.005792815
99	0x3c557a20	0.013029605
100	0xbcc7f859	-0.024410414
101	0x3cb2bc6c	0.021818362
102	0xbc2d52cf	-0.010578825
103	0x3bca8915	0.006180892
104	0x3cce5a61	0.02518958
105	0x3caa6715	0.020801106
106	0xbd195769	-0.037436876
107	0xbc318e26	-0.0108371135
108	0xbac38782	-0.0014917704
109	0xbce85072	-0.028358672
110	0x3b852b54	0.004064003
111	0xbbe4f902	-0.006987692
112	0x3c951c68	0.018202022
113	0xbc70505d	-0.014667598
114	0x3ba07016	0.004896174
115	0xbc75cf22	-0.015002998
116	0xbc7636a7	-0.015027679
117	0x3c9c5102	0.019081596
118	0x3c4c35d2	0.012464004
119	0x3c92cc76	0.01791976
120	0x3b2dc3c6	0.0026514395
121	0xbb2dbfa9	-0.0026511943
122	0xbb4226b6	-0.0029625124
123	0xbbfc4715	-0.0076989033
124	0x3bdc9b5c	0.0067323875
125	0xbc6d8641	-0.014497341
126	0x3b094836	0.0020947582
127	0x3b148b89	0.0022666177
128	0xbae25a7b	-0.0017269397
129	0xbbfa671d	-0.0076416866
130	0xbc7620fc	-0.0150225125
131	0xbbfacf96	-0.0076541407
132	0xbc0e4d50	-0.008685425
133	0xbc8706d4	-0.016482748
134	0xbbe13fa1	-0.0068740402
135	0x3beaf880	0.007170737
136	0xbb726422	-0.0036985953
137	0xbb13fecf	-0.0022582298
138	0x3c48eb24	0.012263093
139	0x3be9fb70	0.0071405694
140	0x3bb503bb	0.0055241263
141	0x3bf08482	0.007340015
142	0xbca25221	-0.019814553
143	0x3c4ff227	0.012692011
144	0xbb2318f6	-0.0024886704
145	0xbc6f4c57	-0.014605603
146	0x3c2408df	0.010011881
147	0xba2ce7ed	-0.0006595839
148	0x3cf290d8	0.029610083
149	0xbcd08a3c	-0.02545654
150	0xbbec55f9	-0.007212397
151	0xbb864da4	-0.004098611
152	0x3c286a34	0.010279227
153	0x3c883149	0.016625063
154	0x3a0fb559	0.000548204
155	0x3c489f14	0.012244958
156	0x3b96616a	0.0045892494
157	0x3cb5fe5b	0.022216013
158	0x3cbcd397	0.023050113
159	0x3c02a66a	0.0079742465
160	0x3c33c47d	0.010972139
161	0xbc96a8fb	-0.018391123
162	0xbcb1b072	-0.021690581
163	0xbbe711cc	-0.007051682
164	0x3bad28ad	0.00528439
165	0x3c7dba4c	0.015486311
166	0x3c360078	0.01110851
167	0x3c705eda	0.014671052
168	0xbc86bc10	-0.016447097
169	0xbcbd8dca	-0.0231389
170	0x3cc00cd7	0.023443623
171	0x3c7446bb	0.014909442
172	0xbc33919d	-0.01096001
173	0xbc69ab11	-0.014261977
174	0x3bf20213	0.007385501
175	0xbc54cfd1	-0.012989
176	0xbc67b9b5	-0.014143397
177	0x3b6d78d8	0.0036235359
178	0xbc6f4575	-0.014603962
179	0xbd08437f	-0.033267494
180	0x3cc4b8f2	0.02401397
181	0xbcc35839	-0.023845779
182	0x3aa60f21	0.0012669304
183	0xbc842a6d	-0.016133511
184	0xbd368a7d	-0.044565666
185	0x3c2fed58	0.0107377395
186	0x3b9cca4a	0.004784857
187	0x3c9b1c8e	0.018934514
188	0x3c4fd1c1	0.012684287
189	0xbb6dec6e	-0.0036304253
190	0x3b9c547b	0.004770813
191	0x3c9c6d65	0.019095132
192	0xbbb0c97d	-0.005395113
193	0xbbd801e2	-0.0065920213
194	0x3c7bd633	0.015370893
195	0x3bcde849	0.006283794
196	0xbca4cbf9	-0.020116793
197	0x3a34582e	0.0006879595
198	0x3c7d51e8	0.0154614225
199	0x3b50382b	0.003177176
200	0x3cc082a9	0.023499804
201	0x3973c5a2	0.0002324791
202	0xbd1f3e75	-0.038877923
203	0xbc2672d8	-0.010159217
204	0xbcfb6694	-0.030688561
205	0xbd335fb5	-0.043792445
206	0x3abeba91	0.0014551451
207	0xbcc3c57a	-0.023897875
208	0x3c2c80d1	0.010528759
209	0xbc5e9d1b	-0.013587262
210	0x3a14a9f9	0.000567108
211	0xbb11be60	-0.0022238716
212	0xbc478c9d	-0.012179521
213	0xbc33486e	-0.010942562
214	0xbbbf0a5b	-0.005830092
215	0xbc1777ff	-0.009244918
216	0xbbfd8f03	-0.0077379956
217	0x3c54b923	0.012983593
218	0xbc452f1f	-0.01203516
219	0x3cb435d7	0.02199833
220	0xb95b90e8	-0.0002093945
221	0xbc1bd4f4	-0.009511221
222	0xbca6677b	-0.020313015
223	0xbc95bc84	-0.018278368
224	0xbc33e271	-0.010979281
225	0x3cbbfbdf	0.02294725
226	0x3b7cc345	0.0038568538
227	0xbbee42b0	-0.0072711334
228	0x3cb9b41a	0.022668887
229	0xbc1ca4a4	-0.009560738
230	0x3b7c6f73	0.0038518577
231	0xbc353987	-0.011061079
232	0x3bb66e4e	0.0055673486
233	0xbc5bf9ee	-0.013426287
234	0xbc35a735	-0.011087229
235	0x3bc99064	0.006151246
236	0xbc7f700e	-0.015590681
237	0xbb7cf1f2	-0.003859636
238	0x3c21435c	0.00984272
239	0xba3b3b39	-0.0007142309
240	0x3c4aee99	0.012385988
241	0xbcc9b04b	-0.024620196
242	0xbc524068	-0.012832738
243	0xbbffd617	-0.007807504
244	0x3ab73815	0.0013978506
245	0x3c8c218c	0.01710584
246	0x3cb0e8e5	0.021595428
247	0x3c50baa2	0.012739809
248	0x3cab590d	0.020916486
249	0x3c0d1fef	0.008613571
250	0xbc145216	-0.009052774
251	0x3be31ee7	0.006931174
252	0x3be8396b	0.007086923
253	0x3bede195	0.0072595575
254	0x3c6917ea	0.014226893
255	0xbc969d86	-0.01838566

MatMul_1 f4 [32, 32]
0	0xbb847cc3	-0.004043193
1	0x3d83dbc2	0.064384
2	0xbe2e88e8	-0.17044413
3	0x3d637206	0.055528663
4	0xbe1c1a7c	-0.15244478
5	0xbde301f8	-0.1108436
6	0x3ddb07fd	0.10694883
7	0xbdfaf9ba	-0.12254663
8	0x3dc0d690	0.094159245
9	0x3da9b373	0.0828618
10	0x3d8e2b05	0.06941799
11	0xbdd41242	-0.10355045
12	0xbc8889de	-0.016667303
13	0x3da952ad	0.08267722
14	0xbba94612	-0.0051658237
15	0xbe0a5453	-0.1350873
16	0xbb539d2e	-0.0032289731
17	0xbd8783ac	-0.06616911
18	0x3e211a8e	0.15732786
19	0x3e13adab	0.14421718
20	0xbe19954c	-0.14998358
21	0xbded9f79	-0.116026826
22	0x3b56cad2	0.00327747
23	0xbdbcbf07	-0.09216123
24	0x3e22e082	0.15905955
25	0x3d7bce6d	0.06147616
26	0x3d2bdd5c	0.04195915
27	0xbdbe813e	-0.09301995
28	0x3e037113	0.12836103
29	0x3d46e201	0.048555378
30	0x3db6140a	0.08890541
31	0x3cdda102	0.027054314
32	0x3dd3543d	0.103188016
33	0x3d99391c	0.07481596
34	0x3de13170	0.109957576
35	0xbe001e33	-0.1251152
36	0xbbbc7a6f	-0.0057519
37	0xbe40a006	-0.18811044
38	0x3de03b73	0.10948839
39	0xbdd7ec1a	-0.1054308
40	0xbe169251	-0.14704253
41	0x3e05aa5c	0.13053268
42	0x3c4a9492	0.0123645235
43	0xbe279b8e	-0.16367933
44	0x3d38fa8f	0.045160826
45	0xbe1e2116	-0.15442309
46	0xbbeabc1a	-0.0071635367
47	0x3e0f155d	0.13972993
48	0x3e0d13e0	0.13777113
49	0x3d40b8b9	0.047051165
50	0xbe29a9f4	-0.16568738
51	0x3d109416	0.035297476
52	0xbdf2d03c	-0.11856124
53	0x3e0fe7ec	0.14053315
54	0x3e0f7664	0.14010006
55	0xbdc4cd4d	-0.096094705
56	0xbd1efd67	-0.038815882
57	0x3da34d43	0.07973721
58	0xbd832eb5	-0.06405393
59	0xbd013540	-0.031544924
60	0x3d5ab96d	0.053399492
61	0x3d82fa64	0.063954145
62	0x3b5635ec	0.0032685949
63	0xbdc62222	-0.09674479
64	0xbdca734e	-0.09885274
65	0x3de4a7ef	0.11164843
66	0xbe267016	-0.16253695
67	0x3d58c58b	0.052922767
68	0xbe157586	-0.14595613
69	0xbda8d1e2	-0.08243157
70	0x3dc3ea94	0.095662266
71	0xbda95e88	-0.082699835
72	0xbe2b016f	-0.16699766
73	0x3cbaa376	0.022783022
74	0x3e2c3556	0.16817221
75	0x3d03f807	0.03221896
76	0x3da9c8da	0.082902625
77	0x3e0d8202	0.13819125
78	0xbd21385c	-0.03936039
79	0x3e373779	0.17892255
80	0x3d55b1cd	0.052171517
81	0x3af2ea7b	0.0018533015
82	0xbd8242e6	-0.06360416
83	0xbd8dbdea	-0.06920989
84	0xbaac5ef4	-0.0013150857
85	0x3dce58e4	0.10075548
86	0x3dd55034	0.10415688
87	0x3e322dcd	0.17400284
88	0x3dcf972a	0.10136254
89	0x3df55a1d	0.11980078
90	0x3e0248ab	0.12723033
91	0xbe3cf4d5	-0.18452771
92	0xbe06050d	-0.13087864
93	0xbde2e9cb	-0.11079749
94	0x3e2c1cee	0.16807911
95	0xbe0f045f	-0.13966511
96	0xbdf0d6d7	-0.117597274
97	0x3e5ee935	0.21768649
98	0x3dc1011d	0.094240405
99	0xbd3eb287	-0.046556976
100	0xbd25793d	-0.040398825
101	0xbdb4cb2e	-0.08827816
102	0x3e2a0e9f	0.1660714
103	0x3e0e8e4c	0.1392147
104	0xbdcb7c17	-0.09935778
105	0xbc7ebcff	-0.01554799
106	0xbda81d06	-0.08208661
107	0x3e24d7d3	0.16097955
108	0xbd16ab8b	-0.03678469
109	0xbc8bce32	-0.017066095
110	0x3df4209f	0.119202845
111	0xbde63aa5	-0.11241654
112	0x3c9cec78	0.019155726
113	0x3e0a4a19	0.13504829
114	0xbd744cbc	-0.059643492
115	0x3db80e25	0.08987073
116	0xbdd1f897	-0.10252493
117	0xbdfc441b	-0.123176776
118	0x3cadfa77	0.021237595
119	0xbdb895f2	-0.09012975
120	0xbd752611	-0.059850756
121	0xbdd94c15	-0.106102146
122	0xbdf2c605	-0.118541755
123	0x3d9f82a0	0.077885866
124	0x3dd09805	0.101852454
125	0xbdbc0489	-0.091805525
126	0xbd8f4255	-0.06995074
127	0x3cf30b1e	0.029668387
128	0xbbf4a5bd	-0.0074660466
129	0x3d96d826	0.07365446
130	0xbe136c5f	-0.14396809
131	0xbda8a718	-0.082349956
132	0x3d57f86d	0.05272715
133	0x3d30930e	0.043108992
134	0xbd39a4f7	-0.04532334
135	0x3dff708c	0.124726385
136	0x3da03d93	0.07824244
137	0xbce513dc	-0.027963571
138	0xbd7484d5	-0.05969699
139	0x3cfa2250	0.03053394
140	0xbdbc6d5f	-0.092005484
141	0xbe2b2835	-0.16714557
142	0x3df5e4d9	0.1200654
143	0xbe38af7b	-0.1803569
144	0xbdd197a6	-0.10234003
145	0xbd6f4951	-0.05841953
146	0xbe02d663	-0.12777095
147	0x3d6bd192	0.05757291
148	0x3dcd60f9	0.10028262
149	0x3d3be227	0.045869973
150	0xbc09ae70	-0.008403406
151	0xbb4dbb6e	-0.0031392234
152	0xbe26cd08	-0.1628915
153	0xbdf37f69	-0.11889536
154	0xbd817539	-0.063211866
155	0x3dfe1c10	0.12407696
156	0x3e0a061a	0.1347889
157	0x3e464b4c	0.19364661
158	0xbc6248bf	-0.013811289
159	0xbc939240	-0.018014073
160	0x3da13283	0.078709625
161	0x3dc0b98b	0.094103895
162	0xbdb30a8a	-0.087422445
163	0x3e11f7c9	0.14254679
164	0xba928cbb	-0.0011180857
165	0xbe10524f	-0.14093898
166	0x3d749c66	0.059719466
167	0xbdf6ed6b	-0.12057003
168	0xbe00084d	-0.12503166
169	0xbaf11c02	-0.0018395188
170	0xbda6518d	-0.08121023
171	0x3db27d93	0.08715358
172	0xbde2ed40	-0.11080408
173	0xbdd945ba	-0.106090024
174	0x3da4aa3f	0.08040284
175	0xbd9de612	-0.07709898
176	0xbe14a5de	-0.14516398
177	0x3e0e678e	0.1390669
178	0x3c1f35ce	0.009717418
179	0xbe15b3fe	-0.14619443
180	0x3e179654	0.1480344
181	0xbdd77dca	-0.10522039
182	0x3bd9c11c	0.006645335
183	0x3c80b58d	0.01571157
184	0xbdd4a637	-0.103832655
185	0xba130ab3	-0.0005609199
186	0xbe2ea5d1	-0.17055441
187	0x3d248a0a	0.040170707
188	0xbe128221	-0.14307453
189	0x3d4b172a	0.049582638
190	0x3d696100	0.056977272
191	0xbd429482	-0.04750491
192	0xbdd32bf7	-0.1031112
193	0x3d837fc9	0.064208575
194	0x3d820a34	0.06349602
195	0xbd01d905	-0.031701107
196	0x3d50d143	0.050980818
197	0xbd2bf7ae	-0.041984253
198	0x3e1f065c	0.1552977
199	0x3cc1ebd4	0.023672022
200	0xbdf1f931	-0.118151076
201	0x3d9c6af7	0.076375894
202	0x3e153116	0.14569506
203	0xbdacaa82	-0.08430959
204	0xbdce243a	-0.100655034
205	0xbe12f8d8	-0.14352739
206	0x3e13c521	0.14430667
207	0x3cf48936	0.029850584
208	0x3d79985d	0.06093632
209	0xbe2ba0c7	-0.1676055
210	0x3db41e0e	0.08794795
211	0x3e0858a5	0.13315065
212	0xbe18a0b6	-0.14905056
213	0xbdda1802	-0.106491104
214	0x3e0ebcfa	0.13939276
215	0xbdcb2839	-0.09919781
216	0xbdb9f87d	-0.090805985
217	0x3e19ddd9	0.15026034
218	0x3e14893b	0.14505474
219	0xbe153141	-0.1456957
220	0xbe0e0e64	-0.13872677
221	0xbde60d49	-0.11233003
222	0xbcdd0f60	-0.02698487
223	0xbd19b083	-0.03752185
224	0xbc295dee	-0.010337336
225	0xbe239c2d	-0.15977545
226	0xbde9d2c5	-0.11417154
227	0xbdc7c3cf	-0.097541444
228	0x3e046115	0.12927659
229	0xbd690ab4	-0.056894973
230	0xbe072190	-0.13196397
231	0xbdacc19f	-0.08435368
232	0x3c82428e	0.015900876
233	0x3debc3bc	0.11511943
234	0x3e320b4b	0.1738712
235	0xbae48dda	-0.0017437295
236	0x3c08bf02	0.008346321
237	0x3dd6261f	0.1045649
238	0xbddb19f4	-0.106983095
239	0x3cff0353	0.031129515
240	0x3d76b244	0.0602286
241	0xbd868fd4	-0.06570402
242	0x3e2de8a4	0.16983277
243	0x3c573aa1	0.013136537
244	0x3d553ad6	0.052058063
245	0x3da56d1a	0.0807745
246	0xbd6f0d3f	-0.05836224
247	0xbca2cb99	-0.019872474
248	0x3d8767de	0.06611608
249	0x3e1a8c2d	0.15092535
250	0xbd8ad88f	-0.067795865
251	0x3c3da4ed	0.011574966
252	0xbe18a14a	-0.14905277
253	0x3d9c22a3	0.07623794
254	0xbce2acc4	-0.027670272
255	0x3e07f9d6	0.13278899

MatMul_2 f4 [1, 32]
0	0xbd222d85	-0.039594192
1	0x3c942931	0.018086048
2	0x3e4a76e1	0.19771911
3	0xbceace26	-0.028662752
4	0xbe9fffed	-0.31249943
5	0xbd0ab270	-0.033861578
6	0xbda7fed9	-0.08202905
7	0xbd3f6e2d	-0.04673593
8	0x3d932577	0.0718488
9	0x3de3416d	0.11096463
10	0x3d4a9183	0.049455177
11	0xbdbac29c	-0.0911915
12	0xbeb6ce50	-0.3570428
13	0x3df818be	0.12114094
14	0xbde3b83e	-0.11119126
15	0xbebcadbf	-0.36851308
16	0x3e27683e	0.16348359
17	0x3d5bde08	0.053678542
18	0x3e70c6dd	0.2351336
19	0xbe91838d	-0.28420678
20	0x3e223a96	0.15842661
21	0xbdc540a4	-0.0963147
22	0xbead2965	-0.33820644
23	0x3e3b8cd3	0.18315439
24	0x3cf408f8	0.029789433
25	0xbeb175aa	-0.34660083
26	0xbeb43029	-0.35192993
27	0x3e45417d	0.19263263
28	0xbea7c409	-0.3276675
29	0x3deb6b6d	0.11495099
30	0x3c549517	0.012974999
31	0xbeaddb79	-0.33956507
