openwakeup/ok_speaker.tflite (tflite, 206748 bytes, 9 tensors)

Const_1 f4 [32]
-0.02240934 0.00088301994 -0.010945988 -0.019517636 -0.012420693 -0.019255832 0.023496315 -0.006765514
-0.026078153 -0.012767947 -0.017178368 0.00037745704 -0.014470246 -0.027674617 -0.022054408 0.017585576
0.013470179 -0.019802704 -0.024632378 -0.010529717 0.007707229 -0.023891337 0.010616519 -0.008574109
0.023426594 0.024205055 0.015655177 0.01447608 0.02252989 -0.010730735 0.021002637 0.01455848
00000000: cb93 b7bc 777a 673a cd56 33bc 73e3 9fbc
00000010: 2a80 4bbc 68be 9dbc 587b c03c 3fb1 ddbb
00000020: daa1 d5bc a730 51bc a6b9 8cbc 6de5 c539
00000030: 9c14 6dbc e1b5 e2bc 72ab b4bc a00f 903c
00000040: 07b2 5c3c 4839 a2bc d7c9 c9bc d684 2cbc
00000050: ec8c fc3b c4b7 c3bc e8f0 2d3c 6b7a 0cbc
00000060: 21e9 bf3c ae49 c63c 493f 803c 152d 6d3c
00000070: 9b90 b83c f7cf 2fbc b90d ac3c b186 6e3c

Const_2 f4 [32]
1.0116948 1.0241793 0.9957333 1.0649039 0.997309 0.9893363 0.96653384 1.0348699
0.9979072 1.0217642 1.0051204 0.9979825 1.0320796 1.0253528 0.99764854 0.998309
0.9979089 0.9858558 1.0363656 0.9753926 1.0351554 1.0097828 1.0243272 1.0113117
0.9977004 1.0231695 1.0108917 1.0141842 0.9980688 0.9834378 1.02775 0.9801584
00000000: 377f 813f 4f18 833f 61e8 7e3f c54e 883f
00000010: a54f 7f3f 2545 7d3f c36e 773f 9e76 843f
00000020: d976 7f3f 2bc9 823f c9a7 803f c87b 7f3f
00000030: 2f1b 843f c33e 833f e565 7f3f 2e91 7f3f
00000040: f576 7f3f 0c61 7c3f a1a7 843f 54b3 793f
00000050: f97f 843f 9040 813f 271d 833f a972 813f
00000060: 4b69 7f3f 38f7 823f e664 813f cad0 813f
00000070: 7081 7f3f 94c2 7b3f 508d 833f a9eb 7a3f

Const_3 f4 [32]
0.017599039 0.021879 -0.019908773 0.047754362 -0.011730923 0.005741842 0.0010871734 0.01376675
-0.013133388 0.024561873 0.0030403095 -0.015270463 0.014317782 0.013717219 0.026008487 -0.010347572
-0.009993634 -0.0337214 0.0298837 0.02512061 0.031045355 0.005752767 0.01573359 -0.0006681887
-0.010904032 0.013732155 0.01061126 0.014733571 -0.014849133 -0.00085614476 0.020183668 0.008453742
00000000: dc2b 903c 973b b33c b917 a3bc 149a 433d
00000010: 0f33 40bc 1026 bc3b 7c7f 8e3a ef8d 613c
00000020: 6c2d 57bc fb35 c93c ee3f 473b f730 7abc
00000030: 2195 6a3c 30be 603c c00f d53c dd88 29bc
00000040: 57bc 23bc 731f 0abd a9ce f43c bdc9 cd3c
00000050: d452 fe3c b581 bc3b bbe3 803c 6229 2fba
00000060: d3a6 32bc d5fc 603c dada 2d3c 1365 713c
00000070: c749 73bc e76e 60ba 3858 a53c 9081 0a3c

Const_5 f4 [32]
0.111506656 0.029715158 -0.03188685 0.042198796 0.17828628 0.13007608 0.08028493 -0.0900511
0.00040393276 0.060449306 0.03398557 0.0029412967 -0.022598818 0.12224518 -0.049145505 0.118149534
0.0054400824 0.124093555 0.083915286 -0.14506975 0.03617607 -0.0038337214 0.08279386 -0.047024075
0.045091115 0.026068132 0.11292251 0.1271495 0.14742179 -0.08054161 0.08208962 0.09371212
00000000: 9a5d e43d 346d f33c c99b 02bd a5d8 2c3d
00000010: ae90 363e aa32 053e 6d6c a43d b66c b8bd
00000020: f0c6 d339 b199 773d 7434 0b3d c5c2 403b
00000030: 2821 b9bc ae5b fa3d cc4c 49bd 62f8 f13d
00000040: b842 b23b c324 fe3d c7db ab3d 2a8d 14be
00000050: 5c2d 143d 2c3f 7bbb d48f a93d 519c 40bd
00000060: 76b1 383d d68c d53c eb43 e73d 7b33 023e
00000070: bdf5 163e 00f3 a4bd 9a1e a83d 24ec bf3d

Const_6 f4 [32]
1.2488129 1.04876 1.0329757 1.3284038 1.0655029 1.2013099 1.031943 1.0547711
1.0879637 1.0143672 1.0911303 1.0412377 1.0123972 1.3427639 1.0240413 1.2521632
1.2201941 0.981026 0.962381 1.2057072 0.99902433 1.2171797 0.97725534 0.9757659
1.3437003 0.96024233 0.99782276 1.0241641 0.9352344 0.9133872 1.225569 1.2124134
00000000: 1ad9 9f3f c53d 863f 8c38 843f 2309 aa3f
00000010: 6662 883f 86c4 993f b516 843f bd02 873f
00000020: 6542 8b3f c9d6 813f 28aa 8b3f 4747 853f
00000030: 3b96 813f b0df ab3f c913 833f e246 a03f
00000040: 522f 9c3f 8524 7b3f 9a5e 763f 9d54 9a3f
00000050: 0fc0 7f3f 8bcc 9b3f 682d 7a3f cbcb 793f
00000060: 5ffe ab3f 71d2 753f 5071 7f3f cf17 833f
00000070: 866b 6f3f bed3 693f 72df 9c3f 5d30 9b3f

Const_7 f4 [32]
0.23545174 0.0231006 0.021769501 0.2666992 0.035115134 0.22013696 0.018330464 0.04508904
0.09185238 0.021731304 0.06825132 0.023311073 0.006036569 0.27111936 0.02064913 0.24107982
0.22481754 -0.019257195 -0.03347 0.22070578 0.0070158555 0.22729868 -0.036814604 -0.025207285
0.27595845 -0.022742704 -0.0026320165 0.016173262 -0.043117553 -0.08938718 0.23356465 0.22163732
00000000: 431a 713e 783d bd3c f455 b23c cc8c 883e
00000010: e3d4 0f3d 956b 613e c529 963c 49af 383d
00000020: 1a1d bc3d d905 b23c 59c7 8b3d ddf6 be3c
00000030: 69ce c53b 28d0 8a3e 5d28 a93c a1dd 763e
00000040: 9236 663e 44c1 9dbc d717 09bd b200 623e
00000050: 43e5 e53b fcc0 683e e9ca 16bd 827f cebc
00000060: 6d4a 8d3e e84e babc e97d 2cbb ca7d 843c
00000070: 089c 30bd a010 b7bd 922b 6f3e e5f4 623e

MatMul f4 [32, 1536]
-0.02226442 -0.009013104 0.019790424 0.02638694 0.008971884 0.0022940384 -0.00065925386 0.021184694
0.012418537 -0.015759662 0.009079773 -0.003952026 0.034337077 0.005402747 0.021583155 0.0029342477
-0.040388506 -0.011635915 0.014094814 -0.0071722977 -0.0015528878 0.021905445 0.010898616 0.007869
0.005282508 0.028658915 0.009119374 0.023727302 0.013324212 0.016361864 -0.022771409 -0.01252989
-0.009247262 -0.0022290777 0.014062962 0.00761907 -0.024474083 -0.012206981 0.03816323 0.023948636
-0.011143507 -0.020367216 0.0018742856 0.006128004 0.013343336 -0.005943385 0.008712134 0.0077740625
0.018218642 -0.035837054 0.0031065256 -0.016548993 0.026313718 -0.0042481762 -0.0031216112 0.020331644
-0.016449923 0.020228023 -0.018256104 0.0140550975 0.0023029118 -0.020985369 -0.0065455325 -0.012831036
0.0041301134 0.011455504 -0.029825527 -0.000439736 -0.0018475889 -0.013536576 0.026078163 0.002547296
0.0063354746 -0.0006540922 0.006873132 -0.0283713 0.006625886 -0.011253668 0.01949101 0.009015034
0.0072222976 -0.0012904876 -0.002583828 -0.026694424 -0.013047021 0.002096861 0.02565603 0.016333986
-0.019552656 0.008194766 -0.01892936 0.016618948 -0.012618585 0.0060427114 0.010596116 0.018279731
-0.037019715 0.015724028 0.004887121 0.037637953 -0.0033224253 -0.022424437 0.010420403 0.009641617
0.020644391 0.017922632 0.019781657 0.022593418 0.011564315 0.016747942 -0.02315296 -0.00084508496
0.010861077 0.0024495337 0.021944596 0.000846363 -0.0017223072 -0.0033866218 0.00031482722 -0.0037377793
0.010573311 0.016275033 -0.01001506 0.024408592 0.011763236 0.012352903 0.0121805975 -0.01913463
-0.0068309023 -0.0016049873 -0.0052113966 -0.004794122 0.015279622 -0.009035385 0.012556347 -0.0061942185
0.014640152 -0.016231475 0.014324778 -0.016391974 0.013007089 -0.02288167 -0.023595693 0.020405795
-0.0030536852 -0.020158239 -0.0023509746 -0.010066895 0.004599637 0.007343384 0.0021456121 -0.024045533
-0.01950585 0.010088758 -0.0039762817 0.007493769 -0.0041476586 0.00055017235 -0.0037206274 -0.001882683
-0.0055193477 -0.01810633 -0.02662801 0.019366927 -0.0044602416 -0.015809525 0.0026302447 -0.0063179205
-0.009595083 -0.021756854 -0.017682403 -0.0019928578 -0.034359533 0.031245768 0.020375963 0.009731278
0.006074167 0.00068087806 -0.017873148 -0.021908302 0.020605946 0.039806783 0.019981638 -0.008250171
0.022536317 0.018803326 -0.018225443 0.023491032 -0.004317817 -0.0062510073 -0.02147933 -0.014586424
-0.009307933 0.023664417 -0.02004171 0.03966485 0.010430293 -0.023389587 0.0031622183 0.00038333653
-0.005494696 -0.017427694 -0.017006882 -0.015753793 0.0106542315 -0.014267916 -0.0040913024 0.027578415
-0.0044355914 -0.036254097 -0.006083595 -0.017112855 -0.0030793382 0.00079969823 -0.009753261 -0.0049973135
0.0038136302 0.030009102 -0.02222209 0.0142819565 -0.000906252 -0.009920624 -0.012728279 0.02615176
-0.004114418 0.0127807455 -0.030566 0.0246778 0.01594414 0.017763304 0.021947537 0.018641843
0.0040909695 0.00042737345 0.0019459166 0.025932599 -0.00018966079 -0.007747089 0.013368046 -0.016842244
-0.015381511 -0.024180187 0.0018078788 -0.0201407 -0.016137347 -0.004185515 -0.023033906 -0.020620013
-0.01266019 -0.00033655128 0.00019253878 -0.00034822818 0.0130008105 -0.013694323 -0.014146605 -0.008088544
00000000: df63 b6bc b3ab 13bc 871f a23c 6d29 d83c
00000010: cffe 123c 9457 163b c7d1 2cba 868b ad3c
00000020: 1f77 4b3c 681a 81bc 54c3 143c ff7f 81bb
00000030: 09a5 0c3d 8709 b13b 28cf b03c 824c 403b
00000040: 6b6e 25bd 91a4 3ebc efed 663c 9805 ebbb
00000050: 458a cbba 0c73 b33c 1c90 323c faec 003c
00000060: e418 ad3b 1ac6 ea3c 6d69 153c c25f c23c
00000070: cc4d 5a3c 5109 863c 1b8b babc 2b4a 4dbc
00000080: d481 17bc b815 12bb 5668 663c 64a9 f93b
00000090: df7d c8bc caff 47bc 0c51 1c3d ee2f c43c
000000a0: 4293 36bc 26d9 a6bc 97aa f53a 6ccd c83b
000000b0: 029e 5a3c bac0 c2bb 57bd 0e3c 90bd fe3b
000000c0: 433f 953c e0c9 12bd da96 4b3b c191 87bc
000000d0: de8f d73c 4934 8bbb f293 4cbb 8c8e a63c
000000e0: fdc1 86bc 3db5 a53c d38d 95bc 5a47 663c
000000f0: 73ec 163b 82e9 abbc e87b d6bb 4439 52bc
00000100: e755 873b deaf 3b3c aa54 f4bc 5e8c e6b9
00000110: cc2a f2ba 84c8 5dbc dfa1 d53c 89f0 263b
00000120: d099 cf3b 6277 2bba 0338 e13b ee6a e8bc
00000130: f61d d93b 4e61 38bc 9cab 9f3c cbb3 133c
00000140: 06a9 ec3b 9425 a9ba 7155 29bb 44ae dabc
00000150: 2cc3 55bc 7d6b 093b 982c d23c dace 853c
00000160: e42c a0bc 5743 063c bf11 9bbc 7624 883c
00000170: 2ebe 4ebc f001 c63b 559b 2d3c 60bf 953c
00000180: fca1 17bd adcf 803c 2424 a03b 412a 1a3d
00000190: 0cbd 59bb 74b3 b7bc 57ba 2a3c dff7 1d3c
000001a0: 6d1e a93c 7cd2 923c 240d a23c d515 b93c
000001b0: 4178 3d3c fb32 893c 47ab bdbc b188 5dba
000001c0: a9f2 313c 5b88 203b 27c5 b33c 76de 5d3a
000001d0: 0abf e1ba 16f2 5dbb 650f a539 88f5 74bb
000001e0: ae3b 2d3c 3853 853c 3516 24bc 87f4 c73c
000001f0: 96ba 403c d563 4a3c 2191 473c 3ac0 9cbc
00000200: c3d5 dfbb 705e d2ba 5dc4 aabb 0318 9dbb
00000210: 6157 7a3c 2709 14bc 23b9 4d3c dff8 cabb
00000220: 40dd 6f3c dff7 84bc 79b2 6a3c 7648 86bc
00000230: af1b 553c 5772 bbbc c14b c1bc 0e2a a73c
00000240: 5620 48bb e422 a5bc cf12 1abb 9eef 24bc
00000250: 8db8 963b c5a0 f03b 669d 0c3b 23fb c4bc
00000260: bbca 9fbc 514b 253c 784b 82bb 4a8e f53b
00000270: 15e9 87bb 7139 103a c5d5 73bb 5cc4 f6ba
00000280: a5db b4bb ba53 94bc fc22 dabc 64a7 9e3c
00000290: 3827 92bb fa82 81bc 2f60 2c3b 8f06 cfbb
000002a0: b234 1dbc 6e3b b2bc b0da 90bc 9b9a 02bb
000002b0: 95bc 0cbd 20f7 ff3c 7eeb a63c f06f 1f3c
000002c0: ce09 c73b f47c 323a b56a 92bc 0a79 b3bc
000002d0: cdcd a83c 700c 233d 88b0 a33c ba2b 07bc
000002e0: 159e b83c 6f09 9a3c 864d 95bc 4470 c03c
000002f0: 797c 8dbb 40d5 ccbb 6bf5 afbc e6fb 6ebc
00000300: 4d80 18bc e1db c13c 832e a4bc 9c77 223d
00000310: d2e3 2a3c 859b bfbc 383d 4f3b 8ffa c839
00000320: da0c b4bb 86c4 8ebc 0452 8bbc 190e 81bc
00000330: 168f 2e3c fac3 69bc 5510 86bb 21ec e13c
00000340: 7058 91bb 2d7f 14bd e558 c7bb 4230 8cbc
00000350: b9ce 49bb d7a2 513a 24cc 1fbc 81c0 a3bb
00000360: 19ee 793b a6d5 f53c 1a0b b6bc defe 693c
00000370: 8b91 6dba 1d8a 22bc 468a 50bc 373c d63c
00000380: 3dd2 86bb 5566 513c 8c65 fabc 1929 ca3c
00000390: 499d 823c 5984 913c 52cb b33c c7b6 983c
000003a0: 8a0d 863b 1811 e039 200e ff3a 9a70 d43c
000003b0: aedf 46b9 4bdb fdbb a605 5b3c bff8 89bc
000003c0: bc02 7cbc 8715 c6bc 59f6 ec3a 1cfe a4bc
000003d0: 7832 84bc a526 89bb 9ab1 bcbc 4deb a8bc
000003e0: b06c 4fbc 2673 b0b9 3ce4 4939 6592 b6b9
000003f0: 5a01 553c 275e 60bc 29c7 67bc d085 04bc

MatMul_1 f4 [32, 32]
-0.08125549 0.011238122 -0.141614 0.06347081 -0.009371095 0.030406496 0.09190053 -0.023461565
-0.028129322 0.0110126315 0.17198505 -0.029333929 -0.0856418 -0.030943297 0.15787627 -0.03774379
-0.13575567 -0.15144953 0.23129635 -0.09325351 -0.14596616 -0.11292757 0.14751811 0.15423566
-0.13070567 -0.009809576 0.119123295 0.15337887 -0.011906566 -0.09101643 0.16403545 -0.094945855
0.031794976 0.24120551 -0.06471899 0.017591335 0.012777808 -0.018537194 -0.087331556 -0.14333554
0.016665177 -0.07480248 0.12783766 -0.09922431 -0.04232213 0.0008397167 0.14726944 0.1509414
-0.052750643 -0.118071355 0.05590748 0.03175609 0.07899494 -0.02856278 -0.0043244315 -0.008977868
0.11839487 0.074186444 -0.14236513 -0.09018765 0.047413945 0.14002396 0.12819935 -0.09377128
0.03407159 0.101695634 -0.062420893 0.13454057 0.13320412 0.0012278804 -0.08210199 0.10089765
0.13289233 0.026829787 0.13890187 -0.14974383 -0.08467525 0.018705407 -0.05539252 -0.0463029
-0.118205115 -0.15418506 -0.16763246 0.024442937 -0.108644925 0.15652975 -0.12473969 0.06005758
0.0048452304 -0.17899604 0.15489934 -0.055811796 0.14129075 0.017898254 -0.07072439 0.0064257993
0.020761274 0.10502653 0.09181062 -0.19814116 0.08995303 -0.05606256 -0.024052996 0.18283488
0.10728607 0.06794001 0.05126969 -0.111062914 0.028280396 -0.039568156 -0.14160605 0.027875928
0.13605885 -0.11716498 0.14587311 0.059011467 -0.1472564 -0.12628096 0.039027415 -0.1383779
-0.034162443 0.15648168 -0.055697124 -0.06794861 0.07777407 0.098719776 0.119575515 0.20453621
0.010604232 0.14873102 0.03924889 0.16136074 -0.12382639 -0.14569975 -0.16568954 -0.12702808
-0.13231704 0.11686124 0.040708542 -0.12507212 0.16342 0.19954887 -0.07281146 -0.17297503
0.002929792 0.14223371 0.121176265 -0.10178076 0.016270308 -0.0046323384 0.04748973 0.119790755
0.053611536 -0.13710581 0.020664357 -0.0966679 0.016001748 0.16490585 0.10409118 -0.044957813
-0.031411625 -0.059629563 0.014845258 -0.032472916 0.049714405 0.09304608 0.106685996 0.12555374
-0.07564099 0.097074494 -0.052169576 0.069072835 0.0612967 -0.083398096 0.07177411 0.1444427
0.17448822 -0.11651547 0.011941639 -0.18090448 -0.10223967 0.062703654 0.15058206 0.05072772
-0.023744525 -0.026112659 0.095162295 0.09861551 0.1618448 0.12510319 -0.06258623 -0.109175116
-0.058067083 0.022899574 -0.012526956 -0.048867177 -0.01700381 -0.03240814 0.066122845 -0.10239939
0.039061237 0.1379441 0.07352323 0.062762186 0.15319912 0.08079308 -0.011073856 0.09163023
-0.12958474 0.003571641 0.038160414 -0.120987035 -0.06765084 0.14773744 -0.16555732 0.01271588
0.05267119 0.023040665 0.012669348 0.046218 0.060928203 -0.1390387 -0.13883826 0.041886702
-0.004116049 0.17922369 0.14625531 -0.039723944 -0.08362815 -0.08665802 -0.15352573 -0.11785685
0.07528302 -0.14256015 0.054486793 -0.014558648 0.16034171 0.030429196 -0.0918938 0.054424312
0.08735854 -0.0977344 0.10623367 -0.13803186 0.09849041 -0.0939361 0.0097061405 -0.120472625
0.15829 0.105315395 -0.010426376 0.020419886 0.12304876 0.058669716 0.066553295 0.1443599
00000000: 4769 a6bd 1a20 383c 4303 11be fcfc 813d
00000010: 3989 19bc 0b17 f93c 5836 bc3d 7832 c0bc
00000020: 776f e6bc 536e 343c d91c 303e b54d f0bc
00000030: f864 afbd cc7c fdbc 51aa 213e 3b99 1abd
00000040: 8903 0bbe 9615 1bbe f3d8 6c3e b2fb bebd
00000050: 2778 15be 9246 e7bd fd0e 173e f4ef 1d3e
00000060: b5d7 05be 58b8 20bc eaf6 f33d 5a0f 1d3e
00000070: c213 43bc d266 babd e9f8 273e f972 c2bd
00000080: 733b 023d 94fe 763e 648b 84bd b41b 903c
00000090: 035a 513c 50db 97bc e3da b2bd 8dc6 12be
000000a0: 6985 883c 0b32 99bd e0e7 023e 1d36 cbbd
000000b0: f859 2dbd 6f20 5c3a cdcd 163e 6290 1a3e
000000c0: 0f11 58bd 65cf f1bd 3eff 643d ac12 023d
000000d0: 19c8 a13d 7efc e9bc f6b3 8dbb e817 13bc
000000e0: 0279 f23d 10ef 973d 2ac8 11be 4db4 b8bd
000000f0: 2035 423d 7162 0f3e b146 033e 280b c0bd
00000100: a78e 0b3d cd45 d03d 0dad 7fbd 01c5 093e
00000110: a966 083e d4f0 a03a 1725 a8bd 6da3 ce3d
00000120: ed14 083e 24ca db3c 4b3c 0e3e 7256 19be
00000130: 386a adbd 153c 993c 44e3 62bd 1ca8 3dbd
00000140: 8615 f2bd b0e2 1dbe d8a7 2bbe 8e3c c83c
00000150: 3b81 debd 5649 203e 8677 ffbd f0fe 753d
00000160: bdc4 9e3b bd4a 37be ef9d 1e3e e99a 64bd
00000170: 86ae 103e 5c9f 923c f3d7 90bd 838f d23b
00000180: 8c13 aa3c 2618 d73d 3507 bc3d 84e5 4abe
00000190: 4b39 b83d dba1 65bd ca0a c5bc 1139 3b3e
000001a0: cdb8 db3d 2224 8b3d 2b00 523d f474 e3bd
000001b0: 4aac e73c 3812 22bd 2d01 11be 0f5c e43c
000001c0: 0353 0b3e 31f4 efbd c35f 153e 02b6 713d
000001d0: 62ca 16be cc4f 01be 36db 1f3d f0b2 0dbe
000001e0: ebed 0bbd bc3c 203e ab22 64bd a428 8bbd
000001f0: 0348 9f3d 982d ca3d 02e4 f43d f171 513e
00000200: 5fbd 2d3c f24c 183e 72c3 203d c03b 253e
00000210: b198 fdbd 5132 15be 85aa 29be a613 02be
00000220: 1e7e 07be f254 ef3d 00be 263d e812 00be
00000230: 9357 273e 8a56 4c3e 2d1e 95bd 5e20 31be
00000240: c101 403b b7a5 113e 432b f83d 6e72 d0bd
00000250: 4f49 853c dfca 97bb 9784 423d db54 f53d
00000260: c597 5b3d 7765 0cbe 4c48 a93c d2f9 c5bd
00000270: 1916 833c 14dd 283e c22d d53d af25 38bd
00000280: 7aa9 00bd 213e 74bd 8639 733c 5202 05bd
00000290: 55a1 4b3d f18e be3d 307e da3d 2991 003e
000002a0: aae9 9abd fece c63d c4af 55bd 0f76 8d3d
000002b0: 4012 7b3d 9fcc aabd 4efe 923d cae8 133e
000002c0: 0aad 323e aa9f eebd dda6 433c 063f 39be
000002d0: 0863 d1bd c66a 803d 2f32 1a3e dfc7 4f3d
000002e0: e183 c2bc 37ea d5bc 73e4 c23d eef6 c93d
000002f0: a5ba 253e 0d1b 003e 362d 80bd 3497 dfbd
00000300: c0d7 6dbd e397 bb3c dd3d 4dbc f328 48bd
00000310: 934b 8bbc 66be 04bd 6a6b 873d c5b6 d1bd
00000320: adfe 1f3d 3841 0d3e 5993 963d 7689 803d
00000330: 3be0 1c3e d876 a53d 1e6f 35bc a1a8 bb3d
00000340: ddb1 04be 3112 6a3b 184e 1c3d 0dc8 f7bd
00000350: 868c 8abd 7c48 173e dc87 29be 4456 503c
00000360: bfbd 573d c7bf bc3c 1993 4f3c 164f 3d3d
00000370: da8f 793d 2960 0ebe 9e2b 0ebe 6491 2b3d
00000380: ecdf 86bb 6a86 373e f4c3 153e 93b5 22bd
00000390: 3c45 abbd c379 b1bd d935 1dbe ef5e f1bd
000003a0: fc2d 9a3d 4afb 11be 8b2d 5f3d 6587 6ebc
000003b0: 9e30 243e a646 f93c d132 bcbd 07ec 5e3d
000003c0: 09e9 b23d f928 c8bd 0a91 d93d 3958 0dbe
000003d0: 57b5 c93d 9261 c0bd 8106 1f3c 5aba f6bd
000003e0: c616 223e 99af d73d 64d3 2abc 9b47 a73c
000003f0: fd00 fc3d a84f 703d 184d 883d 15d3 133e

MatMul_2 f4 [1, 32]
-0.33310023 0.10994794 0.07258622 -0.33616856 0.20176253 -0.33220842 0.0823899 0.18287994
0.09358489 -0.042805884 0.11812743 0.08974693 0.05768613 -0.3353933 0.06158313 -0.30680597
-0.3313329 -0.0574222 0.1192578 -0.34263223 -0.17583334 -0.30976415 -0.038932998 -0.10481364
-0.31921285 0.054203242 0.0033760432 0.16007446 -0.0017997111 -0.0883237 -0.30149037 -0.3408491
00000000: 1d8c aabe 632c e13d 16a8 943d 491e acbe
00000010: d69a 4e3e 3917 aabe 09bc a83d e144 3b3e
00000020: 6fa9 bf3d 3955 2fbd cbec f13d 3dcd b73d
00000030: 4b48 6c3d acb8 abbe 983e 7c3d ac15 9dbe
00000040: 77a4 a9be 8a33 6bbd 6f3d f43d 7e6d afbe
00000050: a80d 34be 6899 9ebe 3578 1fbd 89a8 d6bd
00000060: de6f a3be 3804 5e3d 9b40 5d3b 8fea 233e
00000070: 49e4 ebba 0ee3 b4bd f25c 9abe c683 aebe
